data/jinaai-jina-embeddings-v2-base-de__with16kbchunks__spacymodel_de_core_news_lg.npy (npy, 86144 bytes, 1 tensors)

array f4 [28, 768]
0	0x3d9275e2	0.071513906
1	0x3e6475af	0.22310518
2	0x3e3809ed	0.17972536
3	0xbd9b86ae	-0.075940475
4	0x3e028ca0	0.12748957
5	0xbdfcae33	-0.12337913
6	0x3e70a058	0.23498666
7	0xbe3b817c	-0.18311113
8	0xbda2b510	-0.07944691
9	0xbe373b66	-0.17893752
10	0x3d21e172	0.039521642
11	0xbddaf6a0	-0.10691571
12	0xbcaccb94	-0.021093167
13	0xbe9071c0	-0.28211784
14	0x3df3c67c	0.11903092
15	0x3e1d95bb	0.15389149
16	0xbd551092	-0.052017756
17	0x3df53e45	0.119747676
18	0x3d1bf18e	0.03807216
19	0xbde812b0	-0.11331689
20	0xbe038b30	-0.12846065
21	0x3d55ba5f	0.05217969
22	0x3d35c5c7	0.04437807
23	0x3e488c89	0.1958486
24	0x3d2bfda4	0.041989937
25	0xbd725cc4	-0.0591705
26	0xbe2af02b	-0.1669318
27	0xbd4fc418	-0.05072412
28	0x3d383095	0.044968206
29	0x3df28750	0.11842215
30	0xbe1da03a	-0.15393153
31	0x3d2b7e50	0.041868508
32	0x3e61b1c7	0.22040473
33	0x3e85ac28	0.26107907
34	0x3ca491cc	0.020089053
35	0x3d9fb19c	0.07797548
36	0xbda05474	-0.07828608
37	0xbbab96f8	-0.0052365027
38	0xbe452d3b	-0.19255535
39	0x3d87442e	0.06604801
40	0x3e0c780b	0.13717668
41	0x3ddb5060	0.1070869
42	0x3d91fc58	0.07128209
43	0xbe4cab28	-0.19987166
44	0xbe7705c0	-0.24123287
45	0x3e582994	0.21109611
46	0x3cc9a469	0.02461453
47	0xbdbc24f6	-0.09186737
48	0xbd5bd68f	-0.053671416
49	0xbc5ed9ec	-0.013601761
50	0x3e8a6520	0.27030277
51	0x3d5b1b82	0.05349303
52	0xbe0dc4d8	-0.13844621
53	0x3e06ea8d	0.13175412
54	0x3c1b00b0	0.009460613
55	0xbda562d4	-0.080754906
56	0xbd3092ba	-0.04310868
57	0x3dcf9f4c	0.10137805
58	0x3d1e258f	0.038610037
59	0x3dc26ffd	0.09494016
60	0xbe6a9389	-0.22907843
61	0x3ce4230b	0.027848741
62	0xbd05726c	-0.032579824
63	0xbe4377c8	-0.19088662
64	0xbd94d968	-0.072680295
65	0x3e50654c	0.20351142
66	0xbdbee7ae	-0.09321533
67	0xbea5c2a4	-0.32375062
68	0xbe492f18	-0.19646871
69	0x3d0cf5be	0.034414046
70	0x3db2d31a	0.08731671
71	0xbd81d6e8	-0.06339818
72	0xbc42dfe1	-0.011894197
73	0xbd1b6daa	-0.03794638
74	0xbde41ffb	-0.11138912
75	0x3e9c2650	0.3049798
76	0xbd435c1d	-0.047695268
77	0xbd9f7444	-0.07785848
78	0x3d36520c	0.04451184
79	0xba971414	-0.001152637
80	0x3d8aae54	0.06771532
81	0x3e6d89c0	0.23197079
82	0x3e7634c4	0.24043566
83	0xbcaa70c0	-0.020805717
84	0x3c8065cc	0.01567354
85	0x3e92a044	0.28637898
86	0x3e2d3ccd	0.16917725
87	0x3ccdd7a8	0.025127247
88	0xbe81751c	-0.2528466
89	0xbca29e78	-0.019850954
90	0xbd03f39e	-0.032214753
91	0x3ddc07a3	0.10743644
92	0x3d30f096	0.04319819
93	0xbd7b6b22	-0.061381467
94	0x3d9b5b87	0.07585817
95	0xbdb62b40	-0.08894968
96	0x3ed59ce0	0.4172125
97	0xbe1278ad	-0.14303847
98	0xbebaeaa0	-0.3650713
99	0x3e895e18	0.268296
100	0xbeb27238	-0.34852767
101	0x3dc5077c	0.09620568
102	0x3e0acaec	0.13553971
103	0xbe20615a	-0.15662137
104	0x3c58b012	0.013225572
105	0xbd49cf0b	-0.049269717
106	0x3e280536	0.16408238
107	0xbd8dfaf4	-0.06932631
108	0xbe78f940	-0.24313831
109	0x3e456ca0	0.19279718
110	0x3e0a2336	0.13489994
111	0xbe8472ba	-0.2586878
112	0xbd720660	-0.05908811
113	0x3e419647	0.18904983
114	0xbddd15a0	-0.1079514
115	0x3e026756	0.12734732
116	0xbdd720b0	-0.105042815
117	0xbdf86eb4	-0.1213049
118	0xbee9db00	-0.45674896
119	0xbd262136	-0.040559016
120	0xbd9d0cde	-0.0766847
121	0x3e8ca170	0.27466917
122	0x3d19e0ac	0.03756778
123	0xbcd7b44c	-0.02633109
124	0x3db73f19	0.08947582
125	0xbdc14d5a	-0.09438582
126	0x3d8e06b4	0.06934872
127	0x3e3baa28	0.18326628
128	0xbe10d83c	-0.14144987
129	0xbde90ff5	-0.11379997
130	0x3d284eee	0.0410909
131	0xbdd10220	-0.102054834
132	0x3e24f378	0.16108501
133	0xbe4a1630	-0.19735026
134	0xbb1a2a80	-0.0023523867
135	0xbd86aaac	-0.06575522
136	0x3cc92c4c	0.024557255
137	0x3d9cf6e0	0.07664275
138	0x3dfc8577	0.12330144
139	0x3e0d1ae8	0.13779795
140	0xbdb6bf90	-0.089232564
141	0x3bfbb4f8	0.0076814853
142	0x3e26d986	0.16293916
143	0xbd05a23a	-0.032625414
144	0x3d19760c	0.037466094
145	0x3e8c3125	0.27381244
146	0xbe4eec28	-0.20207274
147	0x3e82ecf8	0.25571418
148	0xbd6320ea	-0.05545131
149	0xbe45eae2	-0.19327882
150	0x3d454c34	0.048168376
151	0xbe9c84b1	-0.30569986
152	0x3e00663e	0.12539002
153	0x3e667bb6	0.2250813
154	0x3e82ae5f	0.2552366
155	0xbe13c41c	-0.14430279
156	0xbdd5ba77	-0.10435956
157	0xbd744f26	-0.059645794
158	0x3dfa13bb	0.122107945
159	0xbc3d48e0	-0.011553019
160	0x3e26bd78	0.16283214
161	0x3d5f5fd8	0.054534763
162	0xbdc91920	-0.09819245
163	0xbcd1461c	-0.025546126
164	0xbc36cffe	-0.011157988
165	0x3d99a337	0.07501834
166	0x3d29b521	0.041432504
167	0x3d2a60ba	0.041596152
168	0xbd317311	-0.043322627
169	0xbea70d18	-0.32627177
170	0x3e1d0291	0.1533301
171	0xbdf13ea6	-0.11779527
172	0xbe11abe0	-0.14225721
173	0xbcfea0ad	-0.031082476
174	0xbce2bf92	-0.027679238
175	0x3e62c248	0.22144425
176	0x3d288d98	0.04115066
177	0x3e68d483	0.22737317
178	0xbe0cc0e8	-0.13745463
179	0xbe1b6cc8	-0.15178216
180	0xbe1a67c4	-0.15078646
181	0xbe57784a	-0.2104198
182	0x3ca2c1b1	0.01986775
183	0xbe127857	-0.14303719
184	0xbde2505a	-0.11050482
185	0xbdf91a88	-0.121632636
186	0x3e3aa690	0.18227601
187	0xbc9f1bfc	-0.019422524
188	0x3d2f7bd8	0.042842716
189	0x3e0438f0	0.12912345
190	0xbdc2ec00	-0.0951767
191	0x3da36839	0.07978863
192	0xbe4ed6a4	-0.20199066
193	0xbbf2b660	-0.0074069947
194	0x3e2b3365	0.16718824
195	0x3c8e0d10	0.017340213
196	0x3e32f094	0.17474586
197	0x3e667400	0.22505188
198	0x3e3e0e48	0.18560135
199	0xbd9fb17a	-0.07797523
200	0x3c5f245c	0.013619509
201	0x3e91c1bc	0.2846812
202	0x3db872ca	0.09006269
203	0x3dd2228b	0.10260495
204	0xbe563e5c	-0.20922226
205	0x3ca7e120	0.02049309
206	0xbdbb8972	-0.09157075
207	0x3db668d2	0.08906712
208	0xbd253748	-0.040335923
209	0xbddcd68d	-0.1078311
210	0x3d88e1b2	0.06683673
211	0xbe1fe92e	-0.15616295
212	0xbe30f99a	-0.17282715
213	0x3d301a3f	0.04299378
214	0xbd25a96d	-0.04044478
215	0x3e69c496	0.22828898
216	0x3e2c256a	0.16811147
217	0x3e0d1161	0.13776161
218	0xbd735c60	-0.059414268
219	0x3e9c6a16	0.30549687
220	0x3e90afd0	0.28259134
221	0xbb48302e	-0.0030546295
222	0xbb848e08	-0.0040452518
223	0x3e353a44	0.17698008
224	0x3d9c093a	0.07618947
225	0xbe99ee30	-0.30064535
226	0x3cc1ec12	0.023672137
227	0xbd6ac7ae	-0.057319336
228	0xbd59453e	-0.05304455
229	0xbe499134	-0.19684297
230	0xbdd2c163	-0.10290792
231	0x3d5668c6	0.052346013
232	0x3cd8df03	0.026473528
233	0x3e11edc7	0.14250861
234	0x3e45ddc6	0.19322881
235	0xbbd9c4e5	-0.006645786
236	0xbe1e87fa	-0.15481558
237	0xbe452f98	-0.19256437
238	0x3e6ad2a8	0.22931921
239	0x3d6a7288	0.05723813
240	0xbd67486a	-0.056465544
241	0xbddfa300	-0.10919762
242	0xbe0d1be9	-0.13780178
243	0x3e5979b0	0.21237826
244	0x3d0f1a72	0.03493733
245	0x3de2cafa	0.11073871
246	0xbe17ac75	-0.14811881
247	0xbc41aaa0	-0.011820465
248	0x3de9d60a	0.11417778
249	0xbd91fa4c	-0.071278185
250	0xbcdd002d	-0.026977623
251	0xbdb38828	-0.08766204
252	0xbe334676	-0.17507347
253	0xbd9f73f0	-0.07785785
254	0xbe501c14	-0.20323211
255	0xbd7e2b5a	-0.062053062
