data/jinaai-jina-embeddings-v2-base-de__with2.0kbchunks__spacymodel_de_core_news_lg.npy (npy, 743552 bytes, 1 tensors)

array f4 [242, 768]
00000000: 66e0 c23d bc83 473e 5cda 6d3e b6b2 ecbd
00000010: 6577 993d ee10 05be 597f 773e 2fb4 6bbe
00000020: 943f 9fbd 2ea7 10be df3c a03d 12e0 d3bd
00000030: e4cb 86bd 972f 9cbe 15b0 333e 25e8 133e
00000040: 9a1d a2bc 1c78 073e a080 993d 8f3d 2bbe
00000050: 0199 fdbd dbab a63d c647 783d 08de 833e
00000060: d173 bb3d d37c c9bd 43c3 1ebe b816 92bc
00000070: 206c 103d e204 183e 489b 3fbe de0d 343c
00000080: ef0e 773e 7438 763e 8b06 f4bc 33a3 df3d
00000090: ff5c debd 5426 7abd 50a8 fdbd 001c 273c
000000a0: cdb4 5e3e 829f 2a3e 3c60 4b3d 0eab 46be
000000b0: c633 68be 7585 773e 1aa6 af3c d5ab acbd
000000c0: ec18 843c b3e2 1dbd b439 923e 85d1 993c
000000d0: 68d7 99bd c53c cc3d c289 913c f80c 89bd
000000e0: 4b84 cabd 239d ed3d 0867 14bd cabf 6b3d
000000f0: b49d a6be 6e92 35bd 4d99 423c a1df 59be
00000100: ba14 c6bd 74f8 523e dd18 55bd 60a1 acbe
00000110: 42ca 4dbe 687b e13b 38c3 703d 8fa3 aabd
00000120: 542b 25bd 5c5c 73bd 4b94 31bd 7283 b63e
00000130: c19f e6bb a0a3 d8bd 148b fc3c 61a3 963c
00000140: 4fbc a43d 0be8 8c3e b489 4d3e 6e3c 2cbd
00000150: d758 35bd 1e23 b03e 9b0a 3b3e 0e52 463d
00000160: d7b8 5abe c54e e4b9 cf36 fa3a 5d6b 123e
00000170: eebf be3d a403 ffbc a4fc 153d a491 d2bd
00000180: 09b9 b53e f817 aebd c623 aebe 2f82 3f3e
00000190: 2a18 9abe afab 973d 7db3 c53d f842 34be
000001a0: 0927 53bc 3187 1cbd 465f 293e f252 aebd
000001b0: 5d13 9fbe 9b5e 4a3e 7cc0 003e f0a1 5cbe
000001c0: c599 a1bd ade4 543e 8f2c f4bd efb4 e33d
000001d0: ba9e 75bd 0320 d1bd 4d57 c8be 5fab 26bd
000001e0: c9aa eabd 6e24 963e 7d41 b5bc c6a3 f23b
000001f0: 9340 e23d 8fb7 eabd 6dff ea3d 2387 573e
00000200: 3226 a5bd 4add e6bd 8c67 2e3c d679 cebd
00000210: fbd8 013e c607 3bbe 83ef 82bd 9c74 23bd
00000220: 2661 cf3a 7f13 9f3d c084 3c3e 7533 0b3e
00000230: e620 c5bd f6a4 83bc f94c f33d a935 0ebd
00000240: 5970 603d 474e 9b3e 1c7d 54be 2ee3 9b3e
00000250: 8150 e1bd 31f1 75be 96be 54bc 6367 91be
00000260: 6229 f13d b5f2 513e 0b4c 8b3e 6ef6 02be
00000270: 67e4 0cbe 7549 ccbc d388 0a3e 54d4 663b
00000280: cb10 403e 430b ed3d 079a a3bd 1c01 8ebd
00000290: bc27 3cbd 6e62 db3d 48d5 7f3c b60d 823d
000002a0: 1833 09bd 3c61 98be ea42 163e 3afe 1cbe
000002b0: ca25 40be 9894 d4bc dfab 2bbd 4400 5a3e
000002c0: 4b69 7f3d de31 5a3e 5ca4 d1bd 2aa0 29be
000002d0: 4629 24be da7a 42be f522 5c3d 32ee f9bd
000002e0: f04f 02bd 5424 76bd 7dca 123e f2c7 82bd
000002f0: f399 15bc a3d6 003e 21aa b9bd 897f 133d
00000300: 4b5d 79be 29e1 0cbc 9cff fa3d a528 8f3d
00000310: a384 0f3e 7747 5a3e f320 363e 94d5 65bd
00000320: 9ec8 8b3d 1a36 863e 3f40 c13d 66d0 1d3e
00000330: fbdd 2fbe d617 a7bb 7b70 f2bd dfee b73d
00000340: 01b5 dcbb b147 e3bd 8958 7e3d b646 18be
00000350: ce85 59be 40cd 303d 463c 77bd 11d1 883e
00000360: 3c86 353e 10d7 223d c153 96bd 4cb2 a93e
00000370: 7e6c 863e c520 c6bc c11b e63c c5e6 3a3e
00000380: c0d2 863d c9cd a1be a5a0 753d 142b 37bd
00000390: 6b6c 26bd 6809 45be abbb 28be ad23 0bbd
000003a0: d747 cbbc ee7b 3c3e 4601 813e ddc8 f5bb
000003b0: b80c 10be 6d1f 64be 9785 a83e bae2 813d
000003c0: c84e f0bb 556d e4bd 1002 27be f04b 5b3e
000003d0: 240c 893d 78a9 033e 7db9 2dbe 8227 a93b
000003e0: b05d 0c3e f535 cebd 199d 35bd 8fa5 c7bc
000003f0: 2056 05be c69f 9fbd 2292 3bbe e0d7 c3bd
0.09515457 0.19483846 0.23227829 -0.11557524 0.07493476 -0.1299474 0.24169673 -0.23017953
-0.077757984 -0.14126274 0.0782411 -0.103454724 -0.06581858 -0.30505058 0.17547639 0.14444025
-0.019789506 0.13229412 0.074952364 -0.16722701 -0.12382699 0.081382476 0.060615323 0.25755334
0.091529496 -0.098382615 -0.15504174 -0.017833099 0.035259366 0.14845613 -0.18711579 0.010989634
0.2412679 0.24044973 -0.029788276 0.109198 -0.10857581 -0.06107171 -0.12385619 0.010199547
0.21748658 0.1666241 0.049652323 -0.1940119 -0.22676 0.24172004 0.021441508 -0.08431212
0.016125165 -0.038546275 0.2855965 0.018776665 -0.075117886 0.09972528 0.017765883 -0.06691927
-0.09888514 0.11602237 -0.03623107 0.05755595 -0.32542193 -0.0443291 0.01187737 -0.21276714
-0.09671922 0.2060259 -0.052025665 -0.3371687 -0.20096686 0.0068811662 0.058779925 -0.083319776
-0.040324524 -0.059414253 -0.043354314 0.3564716 -0.007038087 -0.10578084 0.030828036 0.018388452
0.080437295 0.27520785 0.20072061 -0.042049818 -0.044274177 0.34401792 0.18265764 0.048418097
-0.21359573 -0.00043546237 0.001908982 0.14298768 0.093139514 -0.031129666 0.03661789 -0.10281685
0.35492733 -0.085006654 -0.34011668 0.18702005 -0.3009656 0.07405793 0.09653375 -0.17603672
-0.012887725 -0.038214866 0.1654025 -0.08511914 -0.3106946 0.19762652 0.12573427 -0.21546149
-0.07890657 0.20790358 -0.119225614 0.11118495 -0.059965827 -0.10211184 -0.39129105 -0.040690776
-0.11458356 0.2932467 -0.022125954 0.007404777 0.11047473 -0.11460792 0.114745 0.21047644
-0.08063926 -0.11272676 0.010644805 -0.10081832 0.12680428 -0.18264684 -0.063933395 -0.03990613
0.0015821799 0.077673905 0.18410015 0.13593848 -0.096254155 -0.01606987 0.11879916 -0.034719143
0.054794643 0.30333158 -0.2075085 0.30446762 -0.11001683 -0.24017788 -0.012984892 -0.2839919
0.11775471 0.20502742 0.27206454 -0.12789318 -0.13759004 -0.02493737 0.13528757 0.0035221772
0.18756406 0.115744136 -0.07988363 -0.06933805 -0.04593633 0.10712133 0.015614815 0.063502714
-0.033495992 -0.29761684 0.14673963 -0.15331355 -0.18764415 -0.025949761 -0.041911956 0.21289164
0.062356275 0.21308085 -0.10236427 -0.16565004 -0.1603137 -0.18992177 0.053744275 -0.12203635
-0.031814516 -0.06009324 0.14335056 -0.06385793 -0.009130943 0.12581877 -0.09065653 0.0360103
-0.24351995 -0.008598604 0.12255785 0.06990174 0.1401544 0.21316324 0.17786007 -0.056111887
0.06825374 0.2621315 0.09436082 0.15411529 -0.17174523 -0.005099277 -0.1183786 0.08981108
-0.0067354445 -0.110976584 0.062096152 -0.14870724 -0.21242449 0.04316449 -0.060360216 0.26722005
0.17726988 0.03975588 -0.073401935 0.33143842 0.26254648 -0.024185548 0.028089406 0.18252094
0.06583166 -0.31602314 0.059967656 -0.044718817 -0.04063074 -0.1924187 -0.1647784 -0.03396957
-0.02481453 0.1840665 0.25196284 -0.0075007514 -0.14067352 -0.22277613 0.3291442 0.06342073
-0.00733361 -0.11153666 -0.1630938 0.21415687 0.06691769 0.12857616 -0.1696529 0.0051621804
0.13707614 -0.10068885 -0.044339273 -0.024370937 -0.13021135 -0.07794146 -0.18317464 -0.09562659
