data/jinaai-jina-embeddings-v2-base-de__with128kbchunks__spacymodel_de_core_news_lg.npy (npy, 12416 bytes, 1 tensors)

array f4 [4, 768]
000000 00 5a 9c 3d c2 e7 61 3e 78 3c 3c 3e 35 fc 9e bd
       0.07634354 0.22061065 0.18382442 -0.077629484
000010 1e 97 02 3e 7e 4b f4 bd c8 46 73 3e 4c 80 3e be
       0.12752959 -0.119284615 0.2375747 -0.18603629
000020 3c c0 9a bd 32 40 37 be af ee 2b 3d 2a f0 d7 bd
       -0.07556197 -0.17895582 0.041975673 -0.105438545
000030 b2 fc ce bc 80 b4 91 be c0 5f fa 3d 5c 13 1d 3e
       -0.025266979 -0.28458023 0.12225294 0.15339416
000040 16 a0 52 bd 27 25 ee 3d 74 14 0d 3d c4 c8 e2 bd
       -0.0514222 0.1162818 0.034443334 -0.11073449
000050 92 79 03 be 56 a9 5e 3d c6 34 37 3d 89 1e 50 3e
       -0.12839344 0.05436071 0.044728063 0.20324148
000060 87 df 40 3d c9 49 77 bd 44 5f 2d be 26 2b 49 bd
       0.047088172 -0.0603731 -0.16930872 -0.049113415
000070 0c c8 35 3d 1c 3a f3 3d e6 f0 18 be 01 6f 23 3d
       0.044380233 0.11876318 -0.14935645 0.039900783
000080 40 c0 67 3e 08 15 86 3e a8 e7 9c 3c 60 dc 96 3d
       0.22631931 0.2618792 0.019153431 0.07366252
000090 e9 20 8d bd b0 c3 47 bc b8 7d 3f be aa 80 85 3d
       -0.06891043 -0.012192652 -0.18700302 0.06518681
0000a0 1b 0a 05 3e f2 00 e0 3d 0f b2 91 3d d8 0a 46 be
       0.12992136 0.1093768 0.0711404 -0.19340074
0000b0 80 d4 74 be c0 0b 59 3e 6e db c7 3c 9c 2d c0 bd
       -0.23909187 0.21195889 0.024396624 -0.09383699
0000c0 9c f8 69 bd 32 c4 4d bc aa fe 8b 3e 2d de 55 3d
       -0.057121858 -0.012558984 0.2734273 0.052213836
0000d0 38 54 0c be 4a cc 09 3e cc 86 1d 3c 44 c0 a6 bd
       -0.13704002 0.13456836 0.009614658 -0.081421405
0000e0 98 02 3a bd e9 1a ce 3d a8 50 25 3d 54 6f cf 3d
       -0.04541263 0.100637265 0.040360123 0.10128656
0000f0 52 9d 6b be 0d b2 e8 3c 65 a1 ea bc 5f 7d 41 be
       -0.23009232 0.028405214 -0.028641412 -0.18895482
000100 44 54 97 bd 50 b4 4c 3e bc e7 c2 bd 86 6c a7 be
       -0.07389119 0.19990659 -0.09516856 -0.32699984
000110 00 d6 49 be 30 53 0e 3d 68 9a bf 3d b8 00 66 bd
       -0.19710541 0.034747303 0.093556225 -0.05615303
000120 da d6 46 bc 60 9d 25 bd 36 75 dc bd f4 3d 9a 3e
       -0.012136186 -0.040433288 -0.10764544 0.3012539
000130 d1 15 3d bd 13 c3 a2 bd 30 ba 24 3d c6 cf 1b bb
       -0.046163384 -0.07947364 0.040216625 -0.0023774966
000140 03 9f 8c 3d 30 63 6a 3e 4a 8b 77 3e fc ae b4 bc
       0.068662666 0.228894 0.24174228 -0.022056095
000150 94 32 90 3c 24 16 93 3e 30 59 2b 3e 6a 60 b5 3c
       0.017602243 0.2872783 0.16733241 0.0221407
000160 52 b8 82 be 02 16 a5 bc 18 f4 e8 bc 20 01 e0 3d
       -0.2553125 -0.020152096 -0.028436705 0.109377146
000170 26 25 42 3d 5a d9 6f bd 5e 1a 91 3d 88 18 b2 bd
       0.04739871 -0.058556892 0.07085107 -0.08696085
000180 50 60 d9 3e d2 e5 15 be c0 19 bc be 60 84 86 3e
       0.42456293 -0.1463845 -0.36738396 0.2627287
000190 70 39 b1 be 87 27 ce 3d 6c 0c 04 3e c4 4a 1c be
       -0.34614134 0.10066133 0.12895364 -0.15262896
0001a0 6f f0 65 3c 40 e7 41 bd 7f 53 28 3e c0 02 8e bd
       0.014034375 -0.047339678 0.16438101 -0.06934118
0001b0 c0 5d 77 be f8 0a 49 3e fd 27 0d 3e 64 f5 82 be
       -0.24156857 0.1963309 0.13784786 -0.25577843
0001c0 b0 74 68 bd 28 5f 3a 3e 45 0a ce bd 46 c9 06 3e
       -0.056751907 0.18200362 -0.100605525 0.13162717
0001d0 18 33 dc bd 78 97 fb bd c0 ae e7 be 8b 38 3a bd
       -0.10751933 -0.1228475 -0.4525051 -0.04546408
0001e0 c4 61 97 bd c0 dc 8c 3e a4 64 07 3d 74 70 da bc
       -0.07391694 0.2751217 0.033054963 -0.02666495
0001f0 30 1a b9 3d 9b 71 c9 bd bb e7 86 3d 32 c7 3d 3e
       0.09038198 -0.09836122 0.06587168 0.18533018
000200 e3 59 0e be 36 d2 df bd b2 07 25 3d 0d 55 d0 bd
       -0.13901477 -0.109287664 0.040290542 -0.10172472
000210 b6 67 21 3e ac c2 47 be b8 77 4d bb 33 31 98 bd
       0.15762219 -0.19507855 -0.0031351876 -0.07431259
000220 43 11 ce 3c 90 b0 9c 3d b5 8e 00 3e d2 fa 08 3e
       0.025154715 0.07650864 0.12554438 0.1337693
000230 a0 16 be bd d4 6d 80 3b 70 f7 1f 3e 38 11 f4 bc
       -0.09281659 0.0039193425 0.15621734 -0.029793367
000240 7a e7 1c 3d b4 94 89 3e 9d 24 4d be 77 45 81 3e
       0.03830669 0.26871264 -0.20033498 0.2524831
000250 32 11 5b bd f7 5c 46 be ce 4a 43 3d ee df 9b be
       -0.053483196 -0.19371401 0.04767876 -0.30444282
000260 96 23 03 3e b0 3e 69 3e 00 34 82 3e 92 54 12 be
       0.12806544 0.2277782 0.25430298 -0.14290074
000270 b8 8c d4 bd 82 cd 6d bd 8b 42 f5 3d 70 1c 34 bc
       -0.103784025 -0.058057316 0.11975583 -0.010993108
000280 f2 e6 25 3e da 98 36 3d 83 0a d4 bd 6f d3 cb bc
       0.1620138 0.044579364 -0.103535675 -0.024881093
000290 b3 35 1b bc ea 4e 91 3d d3 c0 2d 3d 78 41 24 3d
       -0.009473252 0.0709513 0.04242022 0.0401015
0002a0 27 d9 20 bd 32 c3 a4 be 3a 32 1e 3e d5 f2 f5 bd
       -0.039269593 -0.32180172 0.15448847 -0.12009207
0002b0 ec 4b 12 be ba cb eb bc b2 8a 14 bd ec f6 61 3e
       -0.14286774 -0.028783668 -0.036265083 0.2206685
0002c0 ae 77 23 3d 0e 6b 67 3e 51 74 0a be b6 e4 1c be
       0.039909057 0.22599432 -0.13520934 -0.15321621
0002d0 54 53 18 be 3c 71 56 be 82 6a c5 3c 44 88 12 be
       -0.14875537 -0.20941633 0.024098638 -0.14309794
0002e0 69 f6 da bd fc 8a f8 bd e0 26 3c 3e 98 5f b6 bc
       -0.1069153 -0.12135884 0.18374205 -0.02226238
0002f0 d2 28 23 3d d3 04 02 3e 11 fe d0 bd 0a fe a9 3d
       0.03983385 0.12697153 -0.10204709 0.08300407
000300 82 ae 4d be 98 e7 e1 bb db f7 2a 3e f2 4b 40 3c
       -0.200861 -0.006894063 0.16696112 0.011736857
000310 f8 3d 37 3e 70 63 69 3e 94 86 3d 3e c0 43 a2 bd
       0.17894733 0.22791839 0.18508369 -0.079230785
000320 37 ba 81 3c 08 30 8f 3e db ea b3 3d 9e 1d d3 3d
       0.015835864 0.27966332 0.087850295 0.103083834
000330 58 4b 52 be b4 61 9c 3c e2 d6 c0 bd 6c 66 b1 3d
       -0.20536554 0.019089557 -0.09415986 0.086621135
000340 39 66 1b bd 84 7c dc bd a5 8b 73 3d 89 09 21 be
       -0.037939284 -0.10765937 0.059459347 -0.15726294
000350 68 41 30 be 32 c9 34 3d e8 8a 15 bd 60 0c 6b 3e
       -0.1721245 0.044137187 -0.036509424 0.2295394
000360 00 a8 2b 3e 8e 7c 11 3e 27 36 60 bd 32 b6 9d 3e
       0.16763306 0.1420767 -0.054739144 0.30803066
000370 d8 ed 8f 3e b0 2c 74 bb 00 c2 9d 38 20 ce 38 3e
       0.28111148 -0.003725808 7.522479e-05 0.1804738
000380 ca 72 a0 3d d0 47 9b be 1a 3d e3 3c ac 4a 7e bd
       0.07834394 -0.30328226 0.027739096 -0.06208293
000390 c6 7b 65 bd 6c 9d 42 be 9d ca db bd d5 d5 47 3d
       -0.056026243 -0.19005364 -0.10732005 0.04878791
0003a0 a4 f8 d4 3c 98 62 0e 3e cb ec 46 3e 22 c5 de bb
       0.025997467 0.13904798 0.19426267 -0.0067984024
0003b0 ae bd 1e be 5c 53 48 be d6 f8 66 3e c2 83 6d 3d
       -0.15502045 -0.19563049 0.22555861 0.057986982
0003c0 9c 54 74 bd 69 29 dc bd 7c 4c 0d be ca 35 5c 3e
       -0.059651002 -0.10750086 -0.13798708 0.21504894
0003d0 94 0a 20 3d 40 a6 df 3d a0 8c 13 be 03 cd 68 bc
       0.039072588 0.109203815 -0.14409113 -0.014209035
0003e0 e2 34 df 3d ba e1 96 bd 59 ef cb bc a2 f1 b0 bd
       0.108987585 -0.07367273 -0.024894403 -0.08639838
0003f0 d3 c3 33 be 42 02 ac bd e4 da 50 be bf 2d 6e bd
       -0.1755517 -0.08398868 -0.20396 -0.058149096
