data/sentence-transformers-paraphrase-multilingual-minilm-l12-v2__with1.0kbchunks__spacymodel_de_core_news_lg.npy (npy, 792704 bytes, 1 tensors)

array f4 [516, 384]
-0.08605399 0.3229561 0.11791374 -0.009812977 0.031071916 0.052948944 0.046133034 0.16303048
-0.17256229 0.066605 0.18065058 -0.07587492 0.021809582 0.010365269 -0.060350496 -0.06678815
-0.22711429 0.1507739 -0.2525491 -0.12689374 0.17463253 0.09461198 -0.1800873 -0.04936199
0.05858805 0.014328533 -0.14344458 -0.12531967 0.043879647 -0.24158245 -0.21307185 0.10153928
0.100439414 0.18444818 0.12343061 -0.05404828 0.1113159 -0.013546271 0.07439392 0.13643537
-0.22234124 0.0047627967 0.013846865 0.033552766 0.07704717 0.048879802 0.107710905 -0.0028804832
-0.29946512 -0.057419922 0.058556665 0.03669775 -0.21345302 0.115296826 -0.033263307 -0.17498735
0.037694983 -0.028843058 0.06672872 -0.11319101 -0.01731955 0.12922479 -0.27671736 0.017133588
-0.1091935 0.10203346 0.21089084 -0.04823953 -0.022908026 0.19297525 -0.08475779 0.051643223
-0.13005605 -0.129394 -0.011589816 -0.01860305 0.07755598 0.07139473 -0.07798652 -0.15085278
0.092978485 -0.102609664 0.0008455225 0.05555019 -0.10458038 -0.1984046 -0.06158372 -0.09406578
0.14167635 -0.112622716 0.011806061 -0.25349343 0.050254755 -0.042410847 0.13351546 0.17729507
0.12765656 0.028364144 0.25115567 0.2917094 -0.022083463 0.098168924 0.032348722 0.07328786
-0.12648633 -0.07547837 0.14778957 -0.18040705 0.053267784 -0.040183026 -0.0509131 -0.014796074
-0.07023123 -0.1906968 0.031615555 -0.09878277 0.1992091 -0.0053386907 0.05486271 0.1415414
0.16058603 -0.13678718 0.025625989 0.062049188 0.04108658 -0.05460871 0.12482145 -0.09877389
-0.030468097 -0.26288313 0.032758176 -0.0333791 -0.20402808 -0.036408942 -0.019110728 -0.0141910715
0.08613312 0.015789665 -0.09941003 -0.15213054 -0.20621063 -0.11514872 0.049270004 0.069142155
0.13984568 0.13317771 0.11596912 0.040216714 0.14757504 0.07085545 0.070297875 -0.26165906
0.1335668 0.104857 -0.007684107 -0.09910101 0.13585784 -0.01925419 0.18220158 0.0015486234
-0.040230922 0.20568341 0.14432989 0.08483791 0.14802551 0.14979209 0.090691306 -0.13267484
-0.06105211 0.09575049 0.016998865 -0.0050632963 0.30587542 0.13662726 0.073098 0.055432647
0.18250613 -0.08551466 -0.14874813 -0.014458555 -0.039122555 -0.022883128 0.0029290984 0.1801484
-0.3180231 0.1792431 -0.19313586 0.14553767 0.17118254 0.31095162 -0.10055122 -0.06978942
0.017260024 0.027852092 -0.23326078 -0.048211645 0.15093747 0.05024251 -0.11536707 -0.0006600899
-0.25678957 0.19096471 0.038989935 0.08678221 0.14423144 -0.14832684 -0.02544783 -0.39052933
-0.21048139 -0.17245254 -0.0559767 0.04518334 -0.015048987 -0.17519528 0.09385075 0.12329078
0.14555298 -0.02011652 -0.22963256 0.01482848 0.10498153 -0.06310988 0.1271737 -0.094461456
0.074492246 0.18863928 -0.4021847 -0.07081586 -0.022871876 -0.006501555 -0.26560202 -0.14178161
0.1397016 -0.03870552 0.13699055 -0.14324476 0.08205679 0.12916511 0.02283466 0.016087418
0.0037014787 -0.118254304 -0.07328397 0.008371714 -0.1019241 0.051196076 -0.112709604 0.18000673
-0.02115964 -0.023962222 0.021995699 -0.038774334 0.08039429 0.110949956 0.13689603 -0.09101046
00000000: 133d b0bd 805a a53e c27c f13d 9cc6 20bc
00000010: 888a fe3c fee0 583d fef5 3c3d 76f1 263e
00000020: 2bb4 30be 3468 883d 77fc 383e 4f64 9bbd
00000030: 02aa b23c 17d3 293c 1532 77bd 3ac8 88bd
00000040: a690 68be 7964 1a3e 1e4e 81be 6ff0 01be
00000050: dfd2 323e edc3 c13d ce68 38be cc2f 4abd
00000060: 06fa 6f3d 39c2 6a3c 23e3 12be cd53 00be
00000070: 25bb 333d 6461 77be 822f 5abe d3f3 cf3d
00000080: 2eb3 cd3d fcdf 3c3e 30c9 fc3d bb61 5dbd
00000090: 97f9 e33d 2ef1 5dbc d75b 983d b7b5 0b3e
000000a0: 6cad 63be 3c11 9c3b f6dd 623c a06e 093d
000000b0: e8ca 9d3d 3036 483d 8997 dc3d 7dc6 3cbb
000000c0: 7e53 99be 2731 6bbd 1dd9 6f3d 6150 163d
000000d0: 6e93 5abe be20 ec3d 1b3f 08bd e22f 33be
000000e0: 0e66 1a3d 4748 ecbc 11a9 883d b0d0 e7bd
000000f0: bbe1 8dbc 8153 043e e6ad 8dbe bd5b 8c3c
00000100: d7a0 dfbd ebf6 d03d c5f3 573e d096 45bd
00000110: 9da9 bbbc 4e9b 453e 7e95 adbd d887 533d
00000120: 6a2d 05be dc7f 04be 36e3 3dbc 6c65 98bc
00000130: abd5 9e3d 6637 923d 66b7 9fbd 2779 1abe
00000140: 816b be3d 0425 d2bd 0ea6 5d3a 9988 633d
00000150: 3d2e d6bd 932a 4bbe 363f 7cbd 8fa5 c0bd
00000160: 9b13 113e bda6 e6bd 356e 413c e4c9 81be
00000170: eed7 4d3d ffb6 2dbd 47b8 083e d78c 353e
00000180: 67b8 023e ec5b e83c 7a97 803e ef5a 953e
00000190: 61e8 b4bc ca0c c93d 1880 043d f217 963d
000001a0: a285 01be 6794 9abd 2656 173e a0bc 38be
000001b0: 522f 5a3d f596 24bd 418a 50bd 3b6b 72bc
000001c0: 64d5 8fbd 0646 43be 507f 013d 9f4e cabd
000001d0: 78fd 4b3e 2ff0 aebb b9b7 603d 3bf0 103e
000001e0: aa70 243e f011 0cbe 98ed d13c 4a27 7e3d
000001f0: 674a 283d 62ad 5fbd 63a2 ff3d f749 cabd
00000200: 3b98 f9bc 9e98 86be 702d 063d 86b8 08bd
00000210: bdec 50be 8b21 15bd 1a8e 9cbc ab81 68bc
00000220: 9066 b03d 5459 813c 7c97 cbbd 1cc8 1bbe
00000230: e128 53be 18d3 ebbd 58cf 493d 679a 8d3d
00000240: b533 0f3e bd5f 083e 3881 ed3d 48ba 243d
00000250: e91d 173e aa1c 913d 55f8 8f3d 2df8 85be
00000260: bcc5 083e 44bf d63d f6ca fbbb 78f5 cabd
00000270: 511e 0b3e f7ba 9dbc 0d93 3a3e 2efb ca3a
00000280: 2ec9 24bd ac9e 523e 37cb 133e 80bf ad3d
00000290: 0094 173e 1963 193e 5dbc b93d eadb 07be
000002a0: c711 7abd d518 c43d 3441 8b3c 02ea a5bb
000002b0: b49b 9c3e 04e8 0b3e 67b4 953d 580d 633d
000002c0: e3e2 3a3e 4f22 afbd 6e51 18be 93e3 6cbc
000002d0: f93e 20bd 6675 bbbc 1ef6 3f3b d278 383e
000002e0: ecd3 a2be 818b 373e 68c5 45be d407 153e
000002f0: 7a4a 2f3e 0d35 9f3e cced cdbd c1ed 8ebd
00000300: e564 8d3c 122a e43c eadb 6ebe 9379 45bd
00000310: 5a8f 1a3e 17cb 4d3d 9245 ecbd e209 2dba
00000320: ec79 83be 418c 433e e9b3 1f3d dfba b13d
00000330: 68b1 133e fee2 17be f877 d0bc 76f3 c7be
00000340: 6f88 57be 6697 30be d347 65bd 2a12 393d
00000350: 0790 76bc 6466 33be d234 c03d e07f fc3d
00000360: d70b 153e 66cb a4bc cc24 6bbe 27f3 723c
00000370: 8e00 d73d c13f 81bd d339 023e 0275 c1bd
00000380: 648f 983d a82a 413e 27eb cdbe e807 91bd
00000390: cd5d bbbc ff0a d5bb fdfc 87be 332f 11be
000003a0: f00d 0f3e ae89 1ebd 4047 0c3e c1ae 12be
000003b0: 640d a83d dc43 043e c10f bb3c c3c9 833c
000003c0: 8294 723b 502f f2bd e815 96bd 8329 093c
000003d0: 95bd d0bd fab2 513d 4bd4 e6bd af53 383e
000003e0: fb56 adbc 6c4c c4bc 5330 b43c d6d1 1ebd
000003f0: c3a5 a43d bb39 e33d 792e 0c3e b163 babd
