data/embeddings/jinaai-jina-embeddings-v2-base-de__with8.0kbchunks__spacymodel_de_core_news_lg.npy (npy, 172160 bytes, 1 tensors)

array f4 [56, 768]
0.08427757 0.18404883 0.20302495 -0.092140675 0.14578375 -0.14969723 0.23128882 -0.16406858
-0.06789028 -0.13286525 0.060513943 -0.098116755 0.00909356 -0.29922676 0.16420609 0.13963392
-0.05901652 0.12986284 0.02080472 -0.13289678 -0.15751502 0.088451505 0.036798086 0.2303149
0.03253244 -0.057377655 -0.09793764 -0.040874027 0.05339863 0.17814764 -0.19402277 -0.02319128
0.24866587 0.2561922 0.026731975 0.14209454 -0.07774176 -0.035599135 -0.14591357 0.029281087
0.16210628 0.11862407 0.10534015 -0.22712243 -0.26552582 0.23986036 0.032188855 -0.09681228
-0.06001501 -0.02646704 0.24437085 0.040734686 -0.10220842 0.12391141 0.018981598 -0.08400833
-0.085290074 0.11803305 -0.035044923 0.039212514 -0.2626289 0.0011263788 0.014626898 -0.19736564
-0.11196286 0.20991373 -0.10003357 -0.32501256 -0.18174767 0.011075109 0.07170728 -0.094908744
-0.029278118 -0.013057474 -0.121569894 0.30529773 -0.008391365 -0.052275926 0.056185313 -0.042179488
0.026971072 0.24537992 0.22453067 -0.015934352 0.050579295 0.33333862 0.18204543 0.034458444
-0.2298046 -0.010028209 0.017501779 0.12488529 0.08892364 -0.08463907 0.052383393 -0.119511865
0.3779779 -0.11137003 -0.30675584 0.22258532 -0.3261062 0.107099034 0.12477062 -0.12498208
0.005809277 -0.046212725 0.13425778 -0.070838496 -0.25219536 0.19315308 0.16486548 -0.2799992
-0.06803499 0.18779501 -0.08576901 0.1518346 -0.07913573 -0.13174745 -0.43750572 -0.049662113
-0.066862695 0.2858119 -0.0072597843 -0.026598446 0.10681301 -0.07747727 0.08263448 0.24668145
-0.10733861 -0.0911309 0.05617649 -0.12769204 0.15480787 -0.191064 -0.07407883 -0.050315164
-0.0014915746 0.05142684 0.18628058 0.15085293 -0.12167047 -0.036242045 0.19350302 -0.017617596
0.0497531 0.25760508 -0.18058029 0.27696118 -0.070721336 -0.21325569 0.01779817 -0.35010117
0.17252555 0.25607395 0.23093319 -0.12568048 -0.15173227 -0.044780612 0.068928406 -0.025449019
0.12554982 0.03548612 -0.09502331 -0.05742151 -0.0038318764 0.07434438 0.01292479 0.031513076
-0.0052140765 -0.289577 0.14010006 -0.11966568 -0.17678931 0.017259747 -0.05285206 0.22598529
0.011922009 0.21232392 -0.15179084 -0.16076446 -0.14141178 -0.21038103 0.056845963 -0.12882787
-0.0675638 -0.067176804 0.15724003 -0.06894018 -0.032086067 0.147432 -0.11851214 0.0551875
-0.20006743 -0.032680213 0.16146617 0.02182759 0.1869204 0.23210764 0.17315143 -0.07366768
0.02553381 0.2592868 0.09414541 0.10157393 -0.18689625 -0.023444075 -0.098196015 0.10327231
-0.044442654 -0.13287193 0.06664862 -0.17049426 -0.21983755 0.03414391 -0.07122644 0.26246095
0.16293697 0.106209695 -0.015141588 0.29703176 0.25963807 0.0030988678 0.0053921677 0.17989564
0.13526051 -0.32191038 0.015244072 -0.07046999 -0.042048816 -0.1695525 -0.1418823 0.0012161825
-0.016664058 0.15193501 0.20284607 -0.0061495923 -0.12924866 -0.2425754 0.23041356 0.02436928
-0.050418068 -0.11549286 -0.15064202 0.23322964 0.041060243 0.11475363 -0.14791428 0.020670423
0.03808187 -0.10363856 -0.054399412 -0.0315532 -0.17881107 -0.10519164 -0.2109313 -0.056993607
00000000: b899 ac3d 4c77 3c3e c6e5 4f3e 40b4 bcbd
00000010: 5648 153e 3b4a 19be fad6 6c3e 9801 28be
00000020: 0f0a 8bbd d40d 08be 78dd 773d 70f1 c8bd
00000030: 28fd 143c 4034 99be a425 283e 32fc 0e3e
00000040: 4ebb 71bd c4fa 043e a96e aa3c 1816 08be
00000050: 9e4b 21be 1026 b53d 97b9 163d abd7 6b3e
00000060: bc40 053d d504 6bbd 8893 c8bd 866b 27bd
00000070: 86b8 5a3d 566c 363e e8ad 46be a4fb bdbc
00000080: 44a2 7e3e a02b 833e 04fd da3c 3b81 113e
00000090: 1237 9fbd 66d0 11bd 5e6a 15be e4de ef3c
000000a0: 30ff 253e 2df1 f23d 94bc d73d c892 68be
000000b0: 00f3 87be f49d 753e 76d8 033d 8445 c6bd
000000c0: 4dd2 75bd 68d1 d8bc 5a3c 7a3e 6ad9 263d
000000d0: a652 d1bd 44c5 fd3d 4c7f 9b3c 8f0c acbd
000000e0: 90ac aebd 50bb f13d 448b 0fbd 4d9d 203d
000000f0: 4c77 86be 00a3 933a a8a5 6f3c 381a 4abe
00000100: c94c e5bd a0f3 563e 66de ccbd 0c68 a6be
00000110: 101c 3abe 6074 353c 44db 923d 845f c2bd
00000120: aad8 efbc 04ef 55bc a3f9 f8bd fc4f 9c3e
00000130: f07b 09bc 481f 56bd 9222 663d 66c4 2cbd
00000140: 70f2 dc3c e044 7b3e 5eeb 653e c288 82bc
00000150: 3c2c 4f3d 5cab aa3e 1e6a 3a3e 4c24 0d3d
00000160: e651 6bbe 5b4d 24bc e45f 8f3c dcc3 ff3d
00000170: 991d b63d 4057 adbd f88f 563d a3c2 f4bd
00000180: 5286 c13e f815 e4bd 1a0f 9dbe 68ed 633e
00000190: 64f7 a6be bd56 db3d bd87 ff3d 9bf6 ffbd
000001a0: bf5b be3b 8e49 3dbd df7a 093e c613 91bd
000001b0: c01f 81be ecc9 453e 7fd2 283e 0e5c 8fbe
000001c0: ee55 8bbd 564d 403e aaa7 afbd 887a 1b3e
000001d0: ea11 a2bd cee8 06be c000 e0be 806a 4bbd
000001e0: 4fef 88bd f055 923e 7ce3 edbb fce4 d9bc
000001f0: c8c0 da3d 67ac 9ebd 443c a93d 109a 7c3e
00000200: 58d4 dbbd d6a2 babd 5219 663d b4c1 02be
00000210: f485 1e3e 48a6 43be a4b6 97bd 4617 4ebd
00000220: f080 c3ba f3a4 523d 56c0 3e3e 3179 1a3e
00000230: 5e2e f9bd 8a72 14bd a825 463e c752 90bc
00000240: e8c9 4b3d d0e4 833e 0aea 38be dbcd 8d3e
00000250: 59d6 90bd b35f 5abe 78cd 913c 7640 b3be
00000260: 8aaa 303e 201c 833e c079 6c3e 62b2 00be
00000270: b45f 1bbe e06b 37bd 562a 8d3d 767a d0bc
00000280: 2290 003e e559 113d 959b c2bd d132 6bbd
00000290: 3820 7bbb de41 983d 80c2 533c db13 013d
000002a0: d8da aabb 7043 94be 6476 0f3e 4813 f5bd
000002b0: 4208 35be 5064 8d3c 677b 58bd b068 673e
000002c0: 8854 433c 716b 593e 0f6f 1bbe 709f 24be
000002d0: 40ce 10be 206e 57be 50d7 683d 74eb 03be
000002e0: e45e 8abd fe93 89bd 8803 213e 8230 8dbd
000002f0: ae6c 03bd 6af8 163e 7eb6 f2bd 4a0c 623d
00000300: 7ade 4cbe b0db 05bd 6357 253e c6cf b23c
00000310: 1068 3f3e a0ad 6d3e 9c4e 313e 15df 96bd
00000320: 482c d13c 3dc1 843e 4fcf c03d fe05 d03d
00000330: bb61 3fbe ca0d c0bc fe1a c9bd 6f80 d33d
00000340: 8009 36bd 940f 08be 127f 883d 0c96 2ebe
00000350: 181d 61be 7cda 0b3d 2bdf 91bd 4861 863e
00000360: f3d8 263e 7884 d93d 6c14 78bc 8c14 983e
00000370: 48ef 843e 6016 4b3b c8b0 b03b 9036 383e
00000380: bb81 0a3e 70d1 a4be 46c2 793c 9252 90bd
00000390: 613b 2cbd 2c9f 2dbe 9849 11be 5068 9f3a
000003a0: 1083 88bc da94 1b3e e1b6 4f3e 8582 c9bb
000003b0: c359 04be b065 78be 88f1 6b3e 16a2 c73c
000003c0: 2d83 4ebd 8587 ecbd e741 1abe c0d3 6e3e
000003d0: c92e 283d f303 eb3d d776 17be 0555 a93c
000003e0: bcfb 1b3d 7440 d4bd ebd1 5ebd ee3d 01bd
000003f0: 401a 37be b76e d7bd 60fe 57be 2172 69bd
