data/embeddings/jinaai-jina-embeddings-v2-base-de__with128.0kbchunks__spacymodel_de_core_news_lg.npy (npy, 12416 bytes, 1 tensors)

array f4 [4, 768]
0.080057636 0.18364856 0.20616911 -0.09098613 0.13923198 -0.15108788 0.22687015 -0.16126674
-0.07043216 -0.13021664 0.058282696 -0.09757445 0.010489063 -0.29929352 0.16788283 0.13793369
-0.0508669 0.13154718 0.020518506 -0.13520028 -0.15698664 0.08592579 0.037747703 0.23641598
0.027818447 -0.055780567 -0.09514226 -0.040157452 0.05529654 0.17816706 -0.19250786 -0.02197497
0.2451334 0.25452662 0.026192471 0.14609641 -0.07307483 -0.03591185 -0.14482906 0.02913738
0.16585527 0.118114784 0.10336374 -0.22968438 -0.26521683 0.24313223 0.03116355 -0.095099114
-0.05570824 -0.02750361 0.2454902 0.0431154 -0.100526094 0.12425032 0.017328072 -0.082871705
-0.08609811 0.11474814 -0.0345554 0.03753203 -0.26215732 -0.0037209569 0.0130650755 -0.20022678
-0.10982105 0.20873618 -0.09912071 -0.32177758 -0.18359089 0.009247161 0.07390276 -0.100769
-0.026673619 -0.010690839 -0.12346868 0.30630958 -0.009710631 -0.049683142 0.0569944 -0.03938676
0.02392859 0.24507093 0.22683093 -0.01869408 0.049740486 0.33448946 0.18017471 0.03769472
-0.22767681 -0.006590467 0.01206398 0.1219482 0.09222229 -0.0879236 0.052466005 -0.11707595
0.37741375 -0.11717172 -0.3016052 0.2222867 -0.32771176 0.11260381 0.13253224 -0.12328494
0.0041010785 -0.05038065 0.13221341 -0.06885222 -0.25337768 0.19793004 0.16880104 -0.27820885
-0.068630815 0.1918155 -0.07872921 0.14978412 -0.07530123 -0.12769157 -0.43698883 -0.04952286
-0.065973185 0.290236 -0.011267111 -0.02761362 0.112696916 -0.07830621 0.07910209 0.24524426
-0.10833362 -0.086890906 0.054838102 -0.12928757 0.16073468 -0.18740284 -0.07133803 -0.05172674
0.00016434304 0.05042477 0.18743163 0.1558882 -0.120040275 -0.041022312 0.19513369 -0.017976975
0.051812645 0.26200867 -0.17884666 0.27813107 -0.07045551 -0.2149438 0.019429483 -0.34819692
0.17266794 0.25849628 0.22641057 -0.1269831 -0.15271874 -0.049227327 0.06636109 -0.026541904
0.12443498 0.035318773 -0.09736386 -0.057936214 -0.0014186981 0.07357631 0.015580181 0.029811148
-0.0062112063 -0.2825709 0.14423248 -0.12258904 -0.17978728 0.021130297 -0.05628334 0.22773159
0.01218944 0.21466492 -0.14752793 -0.16140747 -0.13915887 -0.20993006 0.056293003 -0.12737334
-0.06750782 -0.058914475 0.15522566 -0.07310553 -0.036448523 0.14882645 -0.115591444 0.050342396
-0.20068818 -0.040760443 0.15769048 0.023921076 0.18611085 0.23393798 0.16974692 -0.06892089
0.029059077 0.26117432 0.0966315 0.09817844 -0.18663898 -0.024370095 -0.10127792 0.109081104
-0.045177095 -0.133101 0.06271139 -0.17305022 -0.22189564 0.03359823 -0.066296495 0.26631308
0.16465184 0.10555236 -0.014491461 0.29235035 0.25563386 0.0076519093 0.006933603 0.18150616
0.13537851 -0.3156476 0.014841709 -0.07023856 -0.039461806 -0.16961934 -0.14126445 0.0028173216
-0.019474246 0.15684146 0.20263165 -0.005482493 -0.12673244 -0.24210095 0.22338596 0.020738527
-0.05385032 -0.115533225 -0.15152049 0.22829139 0.035676487 0.109826505 -0.14942117 0.022991756
0.036990125 -0.103687495 -0.05420731 -0.029901862 -0.1762563 -0.10867596 -0.20743704 -0.05774945
00000000: 42f5 a33d 5e0e 3c3e ff1d 533e f056 babd
00000010: d492 0e3e c8b6 1abe a650 683e 1c23 25be
00000020: bc3e 90bd 8357 05be d6b9 6e3d 1dd5 c7bd
00000030: 52da 2b3c 003d 99be 7ae9 2b3e 7d3e 0d3e
00000040: cf59 50bd 4eb4 063e 6d16 a83c f171 0abe
00000050: 1bc1 20be dcf9 af3d 569d 1a3d 0817 723e
00000060: 83e3 e33c 2a7a 64bd f2d9 c2bd 247c 24bd
00000070: a07e 623d 6d71 363e c820 45be da04 b4bc
00000080: 4004 7b3e 5051 823e 9891 d63c 4c9a 153e
00000090: 42a8 95bd 4e18 13bd 124e 14be 84b1 ee3c
000000a0: f7d5 293e 2ae6 f13d 5eb0 d33d 6232 6bbe
000000b0: 80ca 87be a8f7 783e b44a ff3c 53c3 c2bd
000000c0: 532e 64bd 404f e1bc c861 7b3e c699 303d
000000d0: a0e0 cdbd f476 fe3d 9af3 8d3c a4b8 a9bd
000000e0: 3554 b0bd 1301 eb3d f789 0dbd 30bb 193d
000000f0: 7c39 86be 4cdb 73bb e60e 563c 4008 4dbe
00000100: dce9 e0bd f0be 553e ccff cabd 08c0 a4be
00000110: 40ff 3bbe 6881 173c 555a 973d fa5f cebd
00000120: a282 dabc a128 2fbc 26dd fcbd 9cd4 9c3e
00000130: 5719 1fbc 8d80 4bbd f672 693d 0354 21bd
00000140: e405 c43c e0f3 7a3e 5e46 683e 5424 99bc
00000150: aebc 4b3d 3442 ab3e b87f 383e c765 1a3d
00000160: 1c24 69be d8f4 d7bb 00a8 453c fabf f93d
00000170: 0adf bc3d 4a11 b4bd 98e6 563d 84c5 efbd
00000180: 603c c13e baf7 efbd ff6b 9abe 209f 633e
00000190: d6c9 a7be d49c e63d 88b6 073e d17c fcbd
000001a0: 5762 863b f15b 4ebd f462 073e 6502 8dbd
000001b0: b8ba 81be 2cae 4a3e 2eda 2c3e 6471 8ebe
000001c0: 508e 8cbd 486b 443e c83c a1bd 0261 193e
000001d0: 8837 9abd 94c1 02be 00bd dfbe 7cd8 4abd
000001e0: f31c 87bd d099 943e b099 38bc f535 e2bc
000001f0: a4cd e63d 025f a0bd 4700 a23d 5021 7b3e
00000200: 04de ddbd dcf3 b1bd eb9d 603d f663 04be
00000210: a297 243e 88e6 3fbe ac19 92bd 6bdf 53bd
00000220: 8053 2c39 348a 4e3d 14ee 3f3e 28a1 1f3e
00000230: add7 f5bd 0307 28bd 20d1 473e 7344 93bc
00000240: 7f39 543d 0026 863e 9423 37be 3267 8e3e
00000250: fa4a 90bd 3a1a 5cbe 942a 9f3c de46 b2be
00000260: ddcf 303e a059 843e 2cd8 673e dc07 02be
00000270: 4d62 1cbe 98a2 49bd 53e8 873d 686e d9bc
00000280: c4d7 fe3d 6baa 103d b466 c7bd 864e 6dbd
00000290: 9cf3 b9ba 2daf 963d 0444 7f3c 8236 f43c
000002a0: 6087 cbbb 22ad 90be aeb1 133e f60f fbbd
000002b0: 281a 38be 7219 ad3c 5c89 66bd 7832 693e
000002c0: 38b6 473c 1fd1 5b3e 9011 17be 0048 25be
000002d0: aa7f 0ebe e8f7 56be 7e93 663d 286e 02be
000002e0: 8a41 8abd 4e50 71bd 7af3 1e3e 5ab8 95bd
000002f0: 0c4b 15bd f665 183e 35bb ecbd d433 4e3d
00000300: 3481 4dbe 6cf4 26bd 9d79 213e 22f6 c33c
00000310: d893 3e3e 708d 6f3e 23d2 2d3e 6526 8dbd
00000320: 4d0d ee3c a4b8 853e bce6 c53d c711 c93d
00000330: 4a1e 3fbe cba3 c7bc cc6a cfbd ea65 df3d
00000340: 9e0b 39bd a14b 08be d46e 803d 1434 31be
00000350: 9c38 63be 4c9e 093d 75c6 87bd 305a 883e
00000360: 7e9a 283e d62b d83d 986d 6dbc f2ae 953e
00000370: 71e2 823e debc fa3b 4733 e33b c0dc 393e
00000380: aaa0 0a3e 909c a1be a42a 733c 3cd9 8fbd
00000390: b4a2 21bd b1b0 2dbe a1a7 10be d0a2 383b
000003a0: 7488 9fbc 0c9b 203e ac7e 4f3e 7ca6 b3bb
000003b0: 26c6 01be 50e9 77be 4abf 643e d8e3 a93c
000003c0: 2792 5cbd af9c ecbd 3028 1bbe 38c5 693e
000003d0: 8221 123d b8ec e03d dd01 19be 3559 bc3c
000003e0: f582 173d 1c5a d4bd 7c08 5ebd c0f4 f4bc
000003f0: 887c 34be 8091 debd 606a 54be b08a 6cbd
