data/embeddings/jinaai-jina-embeddings-v2-base-de__with4.0kbchunks__spacymodel_de_core_news_lg.npy (npy, 353408 bytes, 1 tensors)

array f4 [115, 768]
000000 38 53 a7 3d 4e c9 3c 3e 10 0e 54 3e a8 82 b7 bd
       0.081701696 0.18436167 0.2070849 -0.089604676
000010 a5 37 0d 3e c8 54 19 be 32 48 6e 3e 5c 33 26 be
       0.13790758 -0.14973748 0.23269728 -0.1623053
000020 ea bd 89 bd 88 1d 07 be 61 2e 84 3d 26 9b c9 bd
       -0.06725676 -0.13194859 0.064541586 -0.09844045
000030 dc 05 55 3c 40 e4 98 be 78 76 29 3e 4a e1 0c 3e
       0.013001885 -0.2986164 0.16549098 0.13757816
000040 86 49 56 bd e0 82 04 3e 5d 4a a7 3c b7 e2 08 be
       -0.05231621 0.1294055 0.020421201 -0.13367735
000050 f0 36 20 be 7b 44 b4 3d 9a 01 21 3d d6 b2 6f 3e
       -0.15645957 0.08802124 0.039308168 0.23408064
000060 bc 51 fc 3c ec 96 65 bd 58 9c c6 bd f1 a6 20 bd
       0.030800693 -0.056052133 -0.09697789 -0.039221708
000070 98 83 65 3d f8 ad 36 3e 8a 1b 42 be fb 2e bf bc
       0.0560337 0.17839801 -0.18955818 -0.023337832
000080 88 64 7f 3e 20 6d 82 3e d4 4e c8 3c 5a a8 12 3e
       0.24940693 0.2547388 0.02445165 0.14322034
000090 cf e7 93 bd 42 cb 13 bd 45 33 15 be 06 12 06 3d
       -0.07221948 -0.036082514 -0.14570339 0.032732032
0000a0 24 b1 25 3e d2 a8 f0 3d 2c 55 d9 3d 74 46 6a be
       0.16180855 0.1175095 0.10611948 -0.22878438
0000b0 20 ce 88 be b0 1a 79 3e 3d 37 13 3d 9b 48 c5 bd
       -0.2671976 0.24326587 0.03594135 -0.09632989
0000c0 21 62 75 bd f3 5f e6 bc 40 4e 78 3e 94 17 29 3d
       -0.059908036 -0.028121924 0.242486 0.04128225
0000d0 ba 13 c9 bd da 6b ff 3d 93 0c 8f 3c 9e 30 ab bd
       -0.09818216 0.12471743 0.01746205 -0.08358882
0000e0 d0 db af bd 4b 58 ee 3d 62 a7 0e bd 4a 4b 16 3d
       -0.08586848 0.11637934 -0.034827597 0.036692895
0000f0 84 71 86 be 40 ab 23 bb d3 b1 47 3c e4 60 4c be
       -0.2625848 -0.00249739 0.012188393 -0.19958836
000100 dc 23 e3 bd 60 04 55 3e 14 cd c3 bd bb 55 a4 be
       -0.11090824 0.2080245 -0.095606 -0.32096657
000110 c0 af 3b be 22 5e 24 3c fb 5b 91 3d 45 05 c7 bd
       -0.18328762 0.010032209 0.07097622 -0.09717802
000120 1e f1 de bc e6 da 54 bc 87 1a f8 bd 86 f4 9b 3e
       -0.027214583 -0.012991643 -0.12114435 0.30459994
000130 9e c9 1f bc 61 b6 57 bd f0 30 6a 3d 56 db 2e bd
       -0.009752659 -0.052664164 0.057175577 -0.042689644
000140 f0 d7 c2 3c a0 c5 7d 3e 10 2b 68 3e c8 c2 7f bc
       0.023784608 0.24782419 0.22672677 -0.015610404
000150 be d2 4c 3d 39 f3 aa 3e 28 1e 38 3e ac 62 17 3d
       0.050005667 0.3338869 0.17980254 0.036959335
000160 e0 b5 68 be c8 bc 18 bc cd 53 5a 3c 67 d9 f9 3d
       -0.2272563 -0.009322353 0.013325644 0.12199669
000170 e4 f1 b8 3d 64 dd b1 bd 0d e6 55 3d 43 0c f1 bd
       0.09030512 -0.08684805 0.052221347 -0.11769917
000180 c0 c0 c3 3e 12 f3 ed bd da 8a 9b be 68 d0 63 3e
       0.38232994 -0.116186276 -0.30379373 0.2224747
000190 40 2f a8 be 8c ec e3 3d 09 d7 07 3e 43 37 00 be
       -0.3284855 0.11129102 0.13265623 -0.1252108
0001a0 f0 fd b7 3b c9 b9 4a bd 08 77 08 3e 61 9d 8d bd
       0.0056149885 -0.049493585 0.13326657 -0.06914783
0001b0 78 ea 81 be d0 15 48 3e 69 30 2c 3e f8 95 8d be
       -0.25374198 0.19539571 0.16815342 -0.2765348
0001c0 82 1f 8d bd 8e a8 44 3e 12 7c 9f bd ee 36 1c 3e
       -0.06890775 0.19204924 -0.077873364 0.15255329
0001d0 9a 45 9d bd 59 03 04 be 40 51 df be bf d9 52 bd
       -0.07679291 -0.12891902 -0.43616676 -0.05147719
0001e0 08 fa 85 bd f0 23 95 3e 2a 47 3a bc f6 8e d6 bc
       -0.0654183 0.2912898 -0.011369506 -0.026191216
0001f0 d3 42 dc 3d 71 a4 a0 bd 5e 8d 9f 3d 9c e0 79 3e
       0.10754933 -0.07843865 0.077906355 0.24402088
000200 82 66 df bd c2 51 b5 bd 46 33 5b 3d c8 99 02 be
       -0.10908224 -0.08853485 0.053515695 -0.12753975
000210 26 1d 24 3e 20 b2 3c be ca 37 9a bd 5e 81 47 bd
       0.16026744 -0.18427324 -0.07530172 -0.04870736
000220 40 6b 28 ba 5e e2 4e 3d 05 56 40 3e fe 81 1e 3e
       -0.0006424673 0.05050885 0.18782814 0.15479276
000230 d3 96 f2 bd 72 77 1d bd c4 83 46 3e a0 d6 9a bc
       -0.11845174 -0.03844399 0.19386202 -0.01890117
000240 ef f7 55 3d cb ae 84 3e 10 ab 35 be b0 e8 8d 3e
       0.0522384 0.25914606 -0.17741036 0.2771659
000250 c2 e7 8f bd da 85 5b be 86 27 ae 3c 1d 17 b2 be
       -0.07026626 -0.21437779 0.02125908 -0.3478326
000260 68 36 30 3e a0 b8 83 3e 1c d4 65 3e 6b 35 00 be
       0.17208254 0.25726795 0.22444195 -0.12520377
000270 bc ba 1d be c6 60 42 bd 48 a4 90 3d c8 06 d5 bc
       -0.15403265 -0.04745557 0.07062584 -0.02600421
000280 27 40 ff 3d 3c 62 10 3d 14 a3 c3 bd 4e 50 67 bd
       0.12463408 0.035249934 -0.09552589 -0.05647307
000290 c8 b6 35 bb 20 d7 93 3d a8 47 4a 3c 15 c7 03 3d
       -0.0027727354 0.07218766 0.012346186 0.03217228
0002a0 70 c1 c5 bb 48 81 92 be 95 b6 0c 3e 71 8a f8 bd
       -0.0060350224 -0.2861426 0.13741525 -0.121357806
0002b0 05 4c 36 be 08 22 a0 3c 0e b5 67 bd 28 f7 68 3e
       -0.17802437 0.019547477 -0.05656915 0.22750533
0002c0 de 55 4e 3c 3c 94 5d 3e 6a 27 17 be 80 96 24 be
       0.0125937145 0.21638578 -0.14761129 -0.16073036
0002d0 35 8e 10 be 80 77 55 be 3e 64 64 3d 18 31 04 be
       -0.14116748 -0.20846367 0.05575966 -0.12909353
0002e0 f4 a6 8b bd 44 d0 7a bd ee 2a 21 3e b4 7f 91 bd
       -0.06818953 -0.061233774 0.15739033 -0.071044356
0002f0 5a 73 21 bd e1 24 18 3e 22 ff ed bd 88 e1 4d 3d
       -0.03941665 0.14857818 -0.11620928 0.05026391
000300 74 9c 4a be ea 2a 16 bd b0 a4 24 3e 80 ab b6 3c
       -0.19786245 -0.03666202 0.16078448 0.022298574
000310 1a b8 3c 3e 20 5f 70 3e b4 06 2f 3e 8c 1b 94 bd
       0.18429604 0.23473787 0.17092401 -0.07231817
000320 c3 9d e6 3c e4 e0 85 3e 4d 98 c7 3d c7 2d cd 3d
       0.028151399 0.2614814 0.09745846 0.10018497
000330 92 d7 3e be a4 99 b0 bc 9c 4d d2 bd 0a 13 d6 3d
       -0.18636921 -0.021557637 -0.10268709 0.1045285
000340 9e ab 40 bd 23 d3 08 be 29 e3 86 3d 94 2e 34 be
       -0.047038667 -0.13361792 0.06586296 -0.17595893
000350 28 89 61 be e4 2b 09 3d a5 9c 85 bd 00 cc 88 3e
       -0.22024977 0.033489123 -0.06524018 0.2671814
000360 68 b2 2b 3e 70 49 df 3d f0 a2 85 bc d0 8f 96 3e
       0.16767275 0.10902679 -0.016313046 0.29406595
000370 76 bc 83 3e 78 fa de 3b 70 aa f1 3b a4 2e 39 3e
       0.25729722 0.0068047605 0.007375054 0.18084198
000380 72 72 0a 3e 30 6e a2 be 30 b9 39 3c f5 32 8f bd
       0.1352022 -0.3172469 0.011335656 -0.06992141
000390 73 23 1e bd 0d 73 2c be 46 3f 11 be 00 c0 dc b9
       -0.038608026 -0.16840763 -0.14184293 -0.0004210472
0003a0 7a 4f af bc 52 57 1a 3e fd 48 4d 3e 90 62 b6 bb
       -0.021400202 0.15072373 0.20047374 -0.005565949
0003b0 94 bd 03 be 80 6c 79 be a2 2e 64 3e 0a d9 be 3c
       -0.12865287 -0.24357796 0.22283414 0.023296852
0003c0 a8 13 58 bd d8 f9 ec bd a4 f8 1a be 44 40 69 3e
       -0.05275312 -0.115710914 -0.15133911 0.22778422
0003d0 41 1f 1b 3d 6e 6e e8 3d 48 7b 19 be 8c 82 aa 3c
       0.037871603 0.11349188 -0.14988434 0.020814203
0003e0 94 f1 1e 3d 24 64 d2 bd b0 e1 61 bd 8a da ff bc
       0.038804606 -0.102730066 -0.055146873 -0.031232137
0003f0 d8 0c 36 be bc 09 df bd 50 de 55 be cc 31 67 bd
       -0.17778337 -0.108905286 -0.20885587 -0.056443974
