data/embeddings/sentence-transformers-paraphrase-multilingual-minilm-l12-v2__with2.0kbchunks__spacymodel_de_core_news_lg.npy (npy, 371840 bytes, 1 tensors)

array f4 [242, 384]
00000000: 169e c5bb 5465 833e a46a 473e a7b0 93bc
00000010: 77bb 5bbd 4d89 1abd 61cf 3c3e 5793 1f3d
00000020: f4d0 07be 21f7 d93c 928d 593e fec0 34be
00000030: b7e9 813d ae58 b23d 5558 8a3c 09c5 65bd
00000040: 5cd3 1cbe 6ea7 6f3e ead1 7bbe 416e c8bd
00000050: 782a 6c3d d955 8d3c aae8 f9bd b945 32bd
00000060: c622 923c fe16 4e3d 6be3 d2bc 9cbb 90bd
00000070: e357 8bbb 649f c2bd 973d b6bd 8a40 d13d
00000080: a08d 053e fade ed3d c8c5 403e 45f8 dc3c
00000090: 1ab3 69bd 4867 413d 6313 4e3c 8d43 313e
000000a0: 31e2 4ebe 3d32 b9bd fa3c aa3c 8869 a33c
000000b0: 3259 8e3d 5330 2dbc 503b c83d f41e 56bd
000000c0: d43d 8dbe f3bd 9cbd a36a 2abd 64d4 e6bd
000000d0: 0d29 6ebe 5867 9b3d e4f9 f2bc 353c ccbd
000000e0: 6785 ff3d 9219 923b 8eb2 253d 36a4 73bc
000000f0: c0af 723d bf85 c53d 84d4 82be 41c4 493d
00000100: 073e 85bd 9be8 1a3e 5db6 653e f6c9 4d3d
00000110: 2ff0 ecbd 8420 ce3d e14c 9d3d 9388 bd3a
00000120: c60e 22be 8393 01be a2cc a43b 9f82 3dbd
00000130: 5547 793d be55 fd3a 89c6 1cbe 5ec0 12be
00000140: 81f6 153e ac97 11be 2177 a1bd 882f fabc
00000150: f62d cfbd e35b c1bd 6727 dcbd dc3c 04be
00000160: 55ea 763d 1c1b c1bd c9ff 85bd 0177 21be
00000170: 4169 233d 6ece f0bd 79fe 863d 18a9 fe3d
00000180: c5d9 ce3c 09a3 8abd 0965 233e 53f7 873e
00000190: ee4e 133b 9f20 ce3d 33ce f23c 2681 5d3d
000001a0: 8309 c2bd 0c09 f0bc 8813 1b3e 0ad8 34be
000001b0: 1b79 293d 5c51 703c 09cc 53be c0cc 8e3d
000001c0: 3afd 40bd 76a3 12be 50f9 c73a 913a 23be
000001d0: 808e 943e be90 3fbc c84d c43c 9f53 603e
000001e0: d98f 053e b84e 80bd e35b 1a3d b511 ca3d
000001f0: 98aa 693e 8a45 acbd dfac b03d fed1 e9bd
00000200: ba01 9e3d 11fc 09be bb22 113e d471 c7bd
00000210: d4d3 41be 598b cfbc bf8a e1bc 87de bfbd
00000220: c61d 1f3e 86c7 c1bd 9058 17be 7fa7 31be
00000230: b948 89be 4031 00bd d644 e73d 07cc c6bc
00000240: 2776 883e c893 e73d 7164 60bb c652 973d
00000250: 5324 fe3d afa7 e03d b584 ad3d 5ce5 aebe
00000260: b82e 083e 81a5 a43d 6eb6 923b d42b bcbd
00000270: 8c56 d13d e85f c2bc 8c78 e63d 4e05 80bd
00000280: 3540 3cbe 321b 223e 7620 7cbc de0b fc3b
00000290: 924c 8f3d f5cb 493e 49de c03d 689a 17be
000002a0: 9ed9 f3bd b7a7 983d ff90 ddbc 433b 8a3d
000002b0: 8dc5 da3e ca95 5d3e 0035 c93c 527d aa3b
000002c0: e32a 023e bb42 31be 2044 d8bd 6cd8 0bbe
000002d0: cef8 0cbc 8252 b63d 83b2 0bbd ca51 7f3d
000002e0: 717e 89be 6e20 d23d 4946 21be 303e 3d3e
000002f0: dec1 4f3d 1c41 9d3e d8e3 1fbe ae6c 37bd
00000300: 0b99 9f3d 9f48 ad3c 7403 63be ab54 e23a
00000310: 145c 763e eec2 113e 5198 26be 30e7 09bc
00000320: 1dd2 78be bda6 413e 8143 a1bb 3d98 223d
00000330: 17d5 dd3c fea5 553c 00d8 a83c c523 76be
00000340: 6859 17be 40e4 15be 35ee 14be 846f db3d
00000350: 4815 2fbc 64d6 a0bd 24de de3d aa75 9c3d
00000360: 1289 703d 217e 8f3d 8210 29be b73f 523d
00000370: 6e68 383e 0f04 08be d01f f73d 14f0 48bd
00000380: b7db ea3b fe71 3e3e 1d24 bbbe 4ca6 80bd
00000390: 73f8 f0bd c00a 1abd ae3e 7cbe 26dd dfbd
000003a0: 2d77 bd3d 5e37 e7bd 1f57 f33a f7d4 a6bd
000003b0: 18d3 dc3d ae60 b93d 9140 84bd 1c3f e13d
000003c0: 8628 0b3d a796 66bd 948b d1bd a5f9 df3d
000003d0: 93b4 1ebe c902 363d d367 d5bd eb69 073e
000003e0: e055 223c 369e 8b3c 1442 d23d 6101 87bd
000003f0: ec84 cf3d f92f bf3d 410d ad3d c023 39bd
-0.006030808 0.25663245 0.19474274 -0.01802857 -0.053645577 -0.037728596 0.18438484 0.038958874
-0.13263303 0.026607098 0.21245411 -0.17651746 0.06343406 0.087083206 0.016887823 -0.05609611
-0.15315002 0.23403713 -0.24591795 -0.09786654 0.05765769 0.01725285 -0.1220258 -0.043523524
0.017838847 0.050314896 -0.025743207 -0.07067034 -0.0042524203 -0.095030576 -0.08898466 0.10217388
0.13042307 0.11614795 0.18825448 0.026973853 -0.05705557 0.047217637 0.012577864 0.17310925
-0.20203473 -0.09042785 0.020781029 0.019947782 0.069506064 -0.010570603 0.09776938 -0.052275613
-0.27586234 -0.076534174 -0.041605603 -0.11270979 -0.23257847 0.07588071 -0.029660173 -0.09972421
0.12476616 0.0044586146 0.040453486 -0.014870694 0.05924964 0.09644651 -0.25552762 0.049259428
-0.065059714 0.15127794 0.22432847 0.050241433 -0.11569249 0.100647956 0.07680679 0.0014460258
-0.15825948 -0.12653928 0.005029277 -0.046267148 0.060859043 0.0019327921 -0.1531011 -0.14331195
0.14644815 -0.14218014 -0.0788405 -0.030540243 -0.10116188 -0.09441354 -0.10749703 -0.12913841
0.06028207 -0.09428999 -0.06542928 -0.15768053 0.0398953 -0.11758123 0.065915056 0.12434596
0.025250325 -0.06769378 0.1595651 0.2655588 0.0022477466 0.10064816 0.02963934 0.054078244
-0.094744705 -0.029301189 0.1514417 -0.17660537 0.04137526 0.014667835 -0.20683302 0.06972647
-0.047116496 -0.14320168 0.0015256796 -0.1594031 0.2901497 -0.011692224 0.02396287 0.21906899
0.13043155 -0.062650144 0.037685286 0.098666586 0.22818983 -0.08411701 0.086267225 -0.11417006
0.07715173 -0.13475062 0.14173405 -0.09738508 -0.18928462 -0.025335 -0.02753198 -0.093686156
0.15538701 -0.09461884 -0.14779878 -0.17349051 -0.26813295 -0.03129697 0.11292426 -0.02426721
0.26652643 0.11307484 -0.0034239555 0.07388835 0.12409272 0.10969483 0.084725775 -0.34159362
0.13299072 0.0803938 0.0044773137 -0.09188047 0.10221586 -0.023727372 0.11253461 -0.06251012
-0.18383868 0.15830687 -0.015388599 0.0076918444 0.069970265 0.1970671 0.094173975 -0.14804995
-0.119067416 0.07453864 -0.027046679 0.067495845 0.42728844 0.21639171 0.024561405 0.0052029276
0.12711672 -0.17310612 -0.10559869 -0.13656777 -0.008604242 0.08902456 -0.03410579 0.06233386
-0.2685428 0.10260092 -0.15749468 0.18480754 0.050721996 0.30713737 -0.15614259 -0.04478138
0.077928625 0.021152792 -0.22169286 0.0017267665 0.24058563 0.14234516 -0.16269042 -0.008416936
-0.24298902 0.18911262 -0.004921377 0.039695967 0.027079148 0.013040064 0.02061081 -0.24037082
-0.147802 -0.14637852 -0.14543994 0.10714629 -0.010686226 -0.07853392 0.10882214 0.0763963
0.05872447 0.07006479 -0.16510203 0.051330294 0.18008587 -0.13282798 0.12066615 -0.04905708
0.0071673053 0.18598172 -0.3655099 -0.062817186 -0.11766138 -0.03760791 -0.24633285 -0.109308526
0.092512466 -0.11289857 0.0018565393 -0.081460886 0.107824504 0.09051643 -0.064576276 0.10998365
0.033974193 -0.056296017 -0.102317005 0.10936288 -0.15498571 0.04443625 -0.104201935 0.13223998
0.0099081695 0.017043214 0.1026651 -0.0659206 0.10132775 0.09335322 0.084497936 -0.04520011
