data/embeddings/sentence-transformers-paraphrase-multilingual-minilm-l12-v2__with4.0kbchunks__spacymodel_de_core_news_lg.npy (npy, 554624 bytes, 1 tensors)

array f4 [361, 384]
-0.06379458 0.12692094 0.03542001 0.0011928364 0.027107263 0.03367643 -0.0019564817 0.09304232
-0.07470206 0.03577235 0.056899846 -0.026933383 -0.010224511 -0.0119572375 -0.05709404 -0.018754976
-0.08428642 0.05166722 -0.073317856 -0.0517022 0.079746924 0.057176046 -0.06825649 -0.011552982
0.061881192 0.012202373 -0.06420057 -0.04130059 -0.007812606 -0.100133255 -0.094228216 0.00023604927
0.037595436 0.10410856 0.051969428 -0.030330405 0.086437866 -0.021355696 0.07091356 0.031000853
-0.09364583 0.040042765 0.0006349569 0.018001178 0.025215423 0.040212147 0.053436067 0.022724364
-0.11893287 -0.014135902 0.07279567 0.06373198 -0.092157856 0.046447337 -0.008012585 -0.07605532
-0.0037718439 -0.0068248087 0.025728777 -0.050505914 -0.030100562 0.05930776 -0.088398986 0.00015540155
-0.03975239 0.026820956 0.048882063 -0.05252055 0.022109311 0.09289292 -0.049931083 0.026262736
-0.052303948 -0.054266725 -0.022431131 -0.0027482342 0.021188196 0.04851223 -0.012178196 -0.0714008
0.029042426 -0.048058193 0.0036812632 0.01397023 -0.03757865 -0.11020528 -0.017657546 -0.023469288
0.07814663 -0.053782348 0.021639135 -0.082277864 0.013277075 0.0049091214 0.053543765 0.05011174
0.07181507 0.050441325 0.11488887 0.12579101 0.0025206492 0.0124237565 -0.009205025 0.02854149
-0.052380603 -0.02064377 0.039593842 -0.058863577 0.015507509 -0.037185892 0.0042027365 -0.03518097
-0.045639113 -0.05902339 0.024868283 -0.027613139 0.04978335 -0.011198257 -0.0033581692 0.02603108
0.069475934 -0.068670414 -0.023316668 0.015414446 -0.03189659 -0.014090217 0.062073786 -0.009382822
-0.031212311 -0.10551591 -0.006438044 0.0029670405 -0.0790274 -0.021357713 -0.013141663 0.04220513
0.014407001 0.040037237 -0.033472497 -0.056378897 -0.061157934 -0.05177717 0.012349325 0.028732806
0.030155217 0.039948575 0.07328812 0.033975545 0.07441947 0.014694924 0.01989375 -0.08214181
0.051303707 0.041052338 -0.01834211 -0.058370996 0.05415684 -0.013922355 0.059865754 0.011597564
0.021448536 0.08385558 0.096223526 0.027783273 0.075000376 0.052482836 0.02788818 -0.05500551
-0.011299752 0.04978856 0.012018504 0.0041835937 0.108442195 0.047524583 0.036612637 0.035968263
0.073163964 0.004270163 -0.059888475 0.0036391579 -0.053797822 -0.016969338 0.009194364 0.08538538
-0.111626975 0.10342048 -0.06801007 0.0077367127 0.111996 0.108979926 -0.017975485 -0.03472591
-0.0157256 -0.005033401 -0.067198165 -0.016104797 0.030677557 0.008746459 -0.014570838 0.013557472
-0.08244448 0.043882694 0.0068564545 0.0338459 0.09045388 -0.081051715 0.0024839665 -0.1767694
-0.09874238 -0.063010916 -0.016726002 -0.015972363 0.0008866166 -0.06258443 0.0462057 0.044544093
0.058854267 -0.026392465 -0.094782874 0.013666528 0.014522181 -0.024059653 0.030160293 -0.049120966
0.05361358 0.077058196 -0.16283593 -0.0070261457 0.014240832 -0.0027613186 -0.10125395 -0.044898946
0.048444234 0.0012316114 0.06826974 -0.09033028 0.038889278 0.04883863 0.012091359 0.0012512103
-0.0227806 -0.0551459 -0.032470502 -0.010322813 -0.039741065 0.0031210105 -0.050122976 0.06493933
-0.0169395 -0.003443792 -0.036347967 -0.034402236 0.022185316 0.049590364 0.067653455 -0.04816705
00000000: bca6 82bd 90f7 013e 9314 113d f358 9c3a
00000010: 0d10 de3c 4cf0 093d 5138 00bb f98c be3d
00000020: 65fd 98bd 0786 123d d00f 693d 66a3 dcbc
00000030: b584 27bc 4ae8 43bc 71db 69bd 09a4 99bc
00000040: 5c9e acbd 02a1 533d ac27 96bd b0c5 53bd
00000050: 5b52 a33d 6e31 6a3d 0fca 8bbd b848 3dbc
00000060: 2277 7d3d 76ec 473c 977b 83bd cf2a 29bd
00000070: 7200 00bc aa12 cdbd b9fa c0bd fe83 7739
00000080: acfd 193d de36 d53d e5dd 543d 7877 f8bc
00000090: 5606 b13d 24f2 aebc 213b 913d 80f5 fd3c
000000a0: 63c9 bfbd e203 243d 3c73 263a 3577 933c
000000b0: 9390 ce3c 7eb5 243d c7df 5a3d 7228 ba3c
000000c0: 1493 f3bd 459a 67bc e515 953d ea85 823d
000000d0: 42bd bcbd 903f 3e3d 3847 03bc e4c2 9bbd
000000e0: 0a31 77bb a5a2 dfbb 28c5 d23c 4adf 4ebd
000000f0: 7495 f6bc b2ec 723d 870a b5bd 49f3 2239
00000100: 67d3 22bd 9fb7 db3c 8f38 483d ca1f 57bd
00000110: 961e b53c a53e be3d 8984 4cbd f324 d73c
00000120: aa3c 56bd c946 5ebd 7ec1 b7bc b81b 34bb
00000130: de92 ad3c c3b4 463d 0e87 47bc 953a 92bd
00000140: 62ea ed3c abd8 44bd 5941 713b 64e3 643c
00000150: 12ec 19bd 4eb3 e1bd 8fa6 90bc aa42 c0bc
00000160: 570b a03d e14a 5cbd 8e44 b13c 4c81 a8bd
00000170: 1788 593c b2dc a03b b550 5b3d f841 4d3d
00000180: c813 933d 909b 4e3d db4a eb3d 5ccf 003e
00000190: 7a31 253b 038d 4b3c acd0 16bc d8cf e93c
000001a0: 0b8d 56bd 201d a9bc 272d 223d ef1a 71bd
000001b0: 3513 7e3c 3c50 18bd 1cb7 893b ec19 10bd
000001c0: 14f0 3abd 83c2 71bd 92b8 cb3c f334 e2bc
000001d0: a0e9 4b3d e578 37bc bb14 5cbb 223f d53c
000001e0: 6649 8e3d 13a3 8cbd 9902 bfbc df8c 7c3c
000001f0: 00a6 02bd a7da 66bc 1541 7e3d 68ba 19bc
00000200: f6b0 ffbc ba18 d8bd 3af6 d2bb ae72 423b
00000210: 1ed9 a1bd 5ff6 aebc 2150 57bc 49df 2c3d
00000220: 580b 6c3c 16fe 233d 751a 09bd 8fed 66bd
00000230: be80 7abd 4c14 54bd d354 4a3c 1061 eb3c
00000240: 1308 f73c 1ea1 233d 1518 963d f129 0b3d
00000250: 3c69 983d fac2 703c 38f8 a23c f739 a8bd
00000260: d623 523d 7f26 283d 3142 96bc 6d16 6fbd
00000270: 90d3 5d3d 971a 64bc cb35 753d b603 3e3c
00000280: d7b4 af3c 79bc ab3d d710 c53d bf99 e33c
00000290: cc99 993d 3ef8 563d c175 e43c 754d 61bd
000002a0: 9822 39bc 17ef 4b3d 42e9 443c 8716 893b
000002b0: f116 de3d 23a9 423d 22f7 153d 7553 133d
000002c0: fdd6 953d b9ec 8b3b 9e4d 75bd f07e 6e3b
000002d0: 1b5b 5cbd 4803 8bbc f5a3 163c 88de ae3d
000002e0: af9c e4bd 1ece d33d dd48 8bbd 4084 fd3b
000002f0: 295e e53d de30 df3d 5341 93bc c13c 0ebd
00000300: f9d2 80bc 3aef a4bb 319f 89bd 35ee 83bc
00000310: 804f fb3c 4f4d 0f3c 86ba 6ebc 2920 5e3c
00000320: a7d8 a8bd 57be 333d 1cac e03b 00a2 0a3d
00000330: e23f b93d 71fe a5bd 0bca 223b 0a03 35be
00000340: 7239 cabd de0b 81bd f804 89bc 79d8 82bc
00000350: d56b 683a 442c 80bd 3042 3d3d de73 363d
00000360: 2c11 713d 0335 d8bc 861d c2bd 93e9 5f3c
00000370: 71ee 6d3c c018 c5bc b812 f73c 1133 49bd
00000380: ea99 5b3d b0d0 9d3d 76be 26be 953b e6bb
00000390: 6152 693c 3df7 34bb 3b5e cfbd f5e7 37bd
000003a0: 766d 463d 056e a13a 01d1 8b3d 15ff b8bd
000003b0: 5d4a 1f3d 040b 483d d61a 463c a7ff a33a
000003c0: 619e babc abe0 61bd caff 04bd 0421 29bc
000003d0: 87c7 22bd de89 4c3b c04d 4dbd e9fe 843d
000003e0: b5c4 8abc 3eb1 61bb 9be1 14bd 5ce9 0cbd
000003f0: fbbd b53c 441f 4b3d e58d 8a3d d04a 45bd
