data/embeddings/sentence-transformers-paraphrase-multilingual-minilm-l12-v2__with128.0kbchunks__spacymodel_de_core_news_lg.npy (npy, 6272 bytes, 1 tensors)

array f4 [4, 384]
0	0x3d351636	0.044210635
1	0x3e737b12	0.23777416
2	0x3e67378d	0.22579785
3	0xbbe3a008	-0.0069465674
4	0xbd968a5f	-0.07350611
5	0xbcb444e8	-0.022005513
6	0x3e2e24d7	0.17006241
7	0x3c41f42c	0.011838
8	0xbe1d6cc3	-0.1537352
9	0x3d0a0772	0.033698507
10	0x3e5f3ddc	0.21800941
11	0xbe35a7ca	-0.17739788
12	0x3da4b7ba	0.080428556
13	0x3dcd622a	0.10028489
14	0x3d6d508a	0.057938136
15	0xbd40047c	-0.046879277
16	0xbe0c60db	-0.13708822
17	0x3e6b1090	0.22955537
18	0xbe996e49	-0.29966953
19	0xbdd0d291	-0.10196412
20	0x3ca9c99f	0.020726023
21	0x3c0885eb	0.00833271
22	0xbe1188bf	-0.1421232
23	0xbccd1ce0	-0.025038183
24	0xbca36acc	-0.019948386
25	0x3d7dec05	0.061992664
26	0xbce238ff	-0.027615068
27	0xbd8cb410	-0.06870282
28	0xbc9f0eb1	-0.019416185
29	0xbd8ad6d8	-0.067792594
30	0xbd6dc9b6	-0.058053695
31	0x3dfa34ef	0.122171275
32	0x3dfb32ab	0.122655235
33	0x3de839f9	0.113391824
34	0x3e6fc28d	0.23414059
35	0x3d122f94	0.035689905
36	0xbd2f25c3	-0.04276062
37	0x3d809b1c	0.06279585
38	0xbc918460	-0.017763317
39	0x3e2e53e7	0.17024194
40	0xbe676390	-0.22596574
41	0xbdd86d46	-0.10567717
42	0x3d068631	0.03284282
43	0x3bd67110	0.00654424
44	0x3d9de2a4	0.07709244
45	0xbc843d00	-0.016142368
46	0x3ddb7030	0.107147574
47	0xbd7c8022	-0.061645634
48	0xbe91967c	-0.28435123
49	0xbdce3c60	-0.10070109
50	0xbd41a6a7	-0.047278073
51	0xbdd2deeb	-0.102964245
52	0xbe6366c8	-0.22207177
53	0x3da5d7f3	0.0809783
54	0xbd02120a	-0.031755485
55	0xbdc0305c	-0.09384224
56	0x3e099867	0.13437043
57	0x3bb49ea0	0.0055120736
58	0x3cd9fdee	0.02661034
59	0xbc95b4d2	-0.018274698
60	0x3d5f658a	0.054540195
61	0x3daced95	0.08443753
62	0xbe73eae0	-0.23820066
63	0x3d3f0c64	0.046642676
64	0xbd25651e	-0.040379636
65	0x3e1df403	0.15425114
66	0x3e80c958	0.25153613
67	0x3d81468a	0.063122824
68	0xbe01d05c	-0.12677139
69	0x3de99a8f	0.11406433
70	0x3db816e5	0.08988742
71	0x3c80adcc	0.015707873
72	0xbe2cea60	-0.16886282
73	0xbdc2c872	-0.09510888
74	0x3c82196e	0.015881266
75	0xbcd83928	-0.026394442
76	0x3d878b15	0.06618325
77	0xbc637539	-0.0138829285
78	0xbe16e60a	-0.1473619
79	0xbe14b41c	-0.14521831
80	0x3df1f8f8	0.11815065
81	0xbe12f2c1	-0.14350416
82	0xbdd23103	-0.102632545
83	0xbd0657ee	-0.0327987
84	0xbe045dec	-0.12926453
85	0xbdaba03a	-0.0838017
86	0xbdf6b4eb	-0.12046226
87	0xbe18c3a8	-0.14918387
88	0x3c4d9ad2	0.012549119
89	0xbde2a6ca	-0.11066969
90	0xbdc36a3f	-0.09541749
91	0xbe2bf2b0	-0.16791797
92	0x3d21b8c8	0.03948286
93	0xbdd1dd0a	-0.10247238
94	0x3d0521cc	0.032502934
95	0x3df3487e	0.11879061
96	0x3c74752c	0.014920514
97	0xbd9979ae	-0.07493912
98	0x3de75448	0.11295372
99	0x3e548448	0.20753586
100	0x3c8f03ae	0.01745781
101	0x3df7e33c	0.121038884
102	0x3cdfb7b8	0.027309284
103	0x3cd43630	0.025904745
104	0xbd9538a8	-0.07286197
105	0xbcfb8a30	-0.030705541
106	0x3e18c632	0.14919356
107	0xbe281a65	-0.16416319
108	0x3d599a26	0.053125523
109	0x3bffbc54	0.007804433
110	0xbe6a367e	-0.2287235
111	0x3db32bc4	0.08748582
112	0xbd14198d	-0.03615718
113	0xbe08b6e2	-0.13351014
114	0xbc09e288	-0.008415826
115	0xbe4e59da	-0.20151463
116	0x3e9b1031	0.3028579
117	0xbc539120	-0.012913018
118	0x3c4356e4	0.011922572
119	0x3e7fa1be	0.24964043
120	0x3e03fa34	0.12888414
121	0xbd8c6afc	-0.06856343
122	0x3d14fc1c	0.036373243
123	0x3ddc45f9	0.10755534
124	0x3e83c2f6	0.2573468
125	0xbde5fcd2	-0.11229862
126	0x3dbf0d18	0.09328669
127	0xbe0c8404	-0.13722235
128	0x3dd5d7e4	0.104415685
129	0xbe08c81e	-0.13357589
130	0x3e294384	0.16529661
131	0xbe11f2a5	-0.14252718
132	0xbe3329f7	-0.17496477
133	0xbb5795e8	-0.0032895748
134	0xbd105db8	-0.035245627
135	0xbdbfc8ef	-0.09364497
136	0x3e2171b8	0.15766037
137	0xbdcd0a3c	-0.10011718
138	0xbe1e7aa6	-0.15476474
139	0xbe47d9aa	-0.19516626
140	0xbe8e0b7e	-0.27743143
141	0x3c0fd334	0.008778382
142	0x3e13ce58	0.14434183
143	0xbd06c0a6	-0.032898568
144	0x3e99ef7f	0.30065534
145	0x3dc9610a	0.09832962
146	0xbd428140	-0.047486544
147	0x3db7cf49	0.089750834
148	0x3de446f5	0.111463465
149	0x3deadf65	0.114683904
150	0x3d7e536c	0.062091276
151	0xbeb2c248	-0.3491385
152	0x3e01c1c6	0.12671575
153	0x3d52501a	0.051345922
154	0xbc04a73c	-0.008096512
155	0xbd811900	-0.063035965
156	0x3dce3fe9	0.10070784
157	0xbc6a4e6c	-0.014300924
158	0x3dc74258	0.09729451
159	0xbd77c33b	-0.06048892
160	0xbe50dc67	-0.20396577
161	0x3e2c5362	0.16828683
162	0xbd584cfe	-0.0528078
163	0x3bb35da0	0.0054738075
164	0x3ce8ce4b	0.02841868
165	0x3e432b12	0.19059399
166	0x3db9da8e	0.09074889
167	0xbe211b89	-0.1573316
168	0xbe1a602c	-0.15075749
169	0x3d8cbf36	0.06872408
170	0xbb906140	-0.0044061244
171	0x3d97e4ec	0.0741671
172	0x3ee7dd08	0.4528582
173	0x3e550076	0.20800957
174	0x3d2004bc	0.039067015
175	0xbb951f90	-0.0045508817
176	0x3daf3a1a	0.08556004
177	0xbe47cb86	-0.19511232
178	0xbdc4f8ec	-0.096177906
179	0xbe13f5bc	-0.14449209
180	0xbba967c0	-0.0051698387
181	0x3d8e5660	0.069500685
182	0xbd283a4a	-0.041071214
183	0x3c3fd188	0.011707671
184	0xbe83458e	-0.25639004
185	0x3dcc4385	0.09973816
186	0xbe06c7f4	-0.13162214
187	0x3e43c6af	0.1911876
188	0x3cb6a2d0	0.022294432
189	0x3e8f833c	0.2802981
190	0xbe1f2d27	-0.15544568
191	0xbd3f7205	-0.046739597
192	0x3d983062	0.07431103
193	0x3d209e66	0.03921356
194	0xbe59279d	-0.21206518
195	0x3be0d3b0	0.0068611726
196	0x3e83eaad	0.2576498
197	0x3e057524	0.13032967
198	0xbe3c2e19	-0.1837696
199	0xbbe1cbcc	-0.0068907496
200	0xbe7995ba	-0.24373522
201	0x3e43f552	0.19136551
202	0x39baa9c0	0.00035603158
203	0x3d089aec	0.03335087
204	0x3c747708	0.014920957
205	0x3cd6d636	0.02622519
206	0x3d29ba28	0.041437298
207	0xbe6eba7c	-0.23313326
208	0xbe28fa36	-0.16501698
209	0xbe10fcd4	-0.14158946
210	0xbe0ede95	-0.13952096
211	0x3e07545c	0.13215774
212	0xbc33ab1e	-0.0109660905
213	0xbdbb9100	-0.09158516
214	0x3dee4ec8	0.1163612
215	0x3da790b2	0.08181895
216	0x3da18394	0.07886425
217	0x3d86c80c	0.06581125
218	0xbe2c0bbd	-0.16801353
219	0x3d0eb18a	0.034837283
220	0x3e5408d4	0.20706493
221	0xbe0d3b6f	-0.13792203
222	0x3e1063da	0.1410059
223	0xbc6e9b98	-0.014563464
224	0x3c1fe83c	0.009759959
225	0x3e4990b8	0.19684112
226	0xbebe0098	-0.37109828
227	0xbda294a5	-0.07938508
228	0xbe1aed9c	-0.15129703
229	0xbd180d3f	-0.037122007
230	0xbe75b25d	-0.23993821
231	0xbdda2612	-0.106517926
232	0x3dc22ca2	0.09481169
233	0xbdffa68d	-0.12482939
234	0xbbc509d7	-0.006013136
235	0xbd6e72a5	-0.058214802
236	0x3d96da18	0.07365817
237	0x3db9cc42	0.09072162
238	0xbd601b3d	-0.054713476
239	0x3e08da15	0.13364442
240	0x3d22c775	0.039741
241	0xbc842e3e	-0.016135331
242	0xbdb244fc	-0.08704564
243	0x3e0c02a4	0.13672882
244	0xbe263f96	-0.16235194
245	0x3d8895e6	0.06669216
246	0xbde5094e	-0.11183415
247	0x3e043706	0.12911615
248	0x3bede79e	0.007260277
249	0x3c49be2a	0.012313405
250	0x3de46e11	0.11153806
251	0xbd5eac9c	-0.054363832
252	0x3e14bb41	0.14524557
253	0x3dedea41	0.11616946
254	0x3db30662	0.08741452
255	0xbd493b66	-0.049128912
