data/embeddings/sentence-transformers-paraphrase-multilingual-minilm-l12-v2__with4.0kbchunks__spacymodel_de_core_news_lg.npy (npy, 554624 bytes, 1 tensors)

array f4 [361, 384]
00000000: 0eab 28be eac8 a73e bb4b bb3d 66d7 493b
00000010: d756 8f3d 7613 b23d 8787 a5bb 3fff 753e
00000020: bb81 45be b028 bd3d 6370 163e 766b 8ebd
00000030: 4a43 d8bc 97e9 fcbc d4f3 16be dc58 46bd
00000040: dcd8 5ebe b69a 083e d7d8 41be 63b2 08be
00000050: 53d8 523e 552b 173e 1377 34be a55c f4bc
00000060: fd9b 233e 780c 013d d9bd 29be 3764 dabd
00000070: 663f a5bc 5b5f 84be ea21 79be d1c4 1f3a
00000080: 95cc c63d b0a0 893e 4267 093e fa61 a0bd
00000090: 0e89 643e 00da 61bd 817d 3b3e 8eed a33d
000000a0: bb97 77be 81bd d33d 3de2 d63a 0b60 3e3d
000000b0: e055 853d cca2 d43d f247 0d3e 8153 703d
000000c0: 9239 9dbe 457f 15bd 6677 403e b080 283e
000000d0: 9aa8 73be 509b f53d 3d7a a9bc ad15 49be
000000e0: 458f 1fbc b65a 90bc cc0c 883d af88 05be
000000f0: d72a 9fbd 2cce 1c3e 6eb8 69be 975d d239
00000100: 6e34 d2bd 45d3 8d3d 973d 013e 48dc 0abe
00000110: 53d2 693d 219a 753e 9d03 04be 9ddf 8a3d
00000120: ad49 0abe 2c7a 0fbe 9d39 6dbd 2284 e8bb
00000130: 8414 603d 4543 003e 03cb 00bd 4ac7 3cbe
00000140: 7492 993d ea1f febd 53ba 1b3c bbbe 133d
00000150: dbb5 c6bd f5af 91be b3bd 3abd 4d34 78bd
00000160: 2c9d 4e3e 5332 0ebe 60d9 643d 6089 59be
00000170: 196a 0c3d 71ab 4f3c d790 0d3e e47d 043e
00000180: b0df 3d3e f85c 053e fde0 973e 864a a63e
00000190: dc42 d53b d763 033d 03b3 c2bc 57ec 963d
000001a0: 8f7d 0abe 8c52 5abd ce5d d13d 87a1 1bbe
000001b0: bb00 243d 2fa2 c4bd a2c9 313c 2408 babd
000001c0: 3a55 f1bd b30d 1cbe f57f 833d a403 92bd
000001d0: 9f9f 033e e4db ecbc 5f0f 0ebc 06a6 893d
000001e0: 74b0 373e 3d8f 35be 1997 76bd c604 233d
000001f0: 1caa a8bd 9503 15bd 581e 243e be75 c6bc
00000200: ce0b a5bd f87c 8bbe 792c 88bc 4507 fb3b
00000210: 50f1 50be 76df 61bd 7cfb 0abd ad2c df3d
00000220: 3d5d 183d 06b6 d33d 66ff b0bd c90f 15be
00000230: 74b2 21be 21e5 08be 539a 023d 53ef 973d
00000240: d474 9f3d 003e d33d b6c4 413e 5ea8 b33d
00000250: 76c2 443e c168 1b3d f563 523d 4a2d 59be
00000260: aba4 073e 2714 d93d 13fb 41bd 2154 1abe
00000270: cc2f 0f3e 1e3d 13bd d947 1e3e 0b4e f53c
00000280: 5bd5 623d 3fb5 5d3e 6e68 7e3e f3e9 923d
00000290: a54b 463e c1c2 0a3e f677 933d 376e 11be
000002a0: 7601 efbc 26a3 033e 5535 fe3c 53fa 303c
000002b0: 4a5b 8f3e 924d fb3d 2d9a c13d e431 be3d
000002c0: ad70 413e d4a3 343c 3a57 1ebe 58f2 193c
000002d0: cc3c 0ebe 7576 33bd 4a79 c23c b0c0 613e
000002e0: 1791 93be d4b7 883e 4ad0 33be 74a4 a33c
000002f0: fa0d 943e 4511 903e 7c1a 3ebd 21a0 b7bd
00000300: 2f4f 26bd 55ed 54bc c1aa 31be d151 2abd
00000310: ea37 a23d fdff b83c ce18 1abd 3d61 0f3d
00000320: 27fa 59be 950b e83d 1106 913c dff8 b23d
00000330: 4527 6f3e 764b 56be 5828 d23b c3ae e9be
00000340: a788 82be a398 26be a8e3 30bd 45eb 28bd
00000350: 8a06 163b f977 25be 3654 f43d e98a eb3d
00000360: 3a9b 1b3e 3a8f 8bbd 5599 7abe 7f88 103d
00000370: 1395 193d a572 7ebd b37b 9f3d 4adf 01be
00000380: 18c0 0d3e 78bc 4b3e 5b43 d7be e79c 94bc
00000390: 5b9b 163d 879f e9bb a0da 85be 456b edbd
000003a0: 3f15 003e 0e67 503b 0b80 343e 9dd3 6ebe
000003b0: 0ba4 cd3d 3120 013e d4bf ff3c 0bb8 533b
000003c0: c2eb 70bd 3dcd 11be 01b3 abbd 9257 dabc
000003d0: 1925 d2bd 0e07 043c 7f85 04be dfb1 2b3e
000003e0: ad25 33bd a0ae 11bc e433 c0bd fae9 b5bd
000003f0: 19a0 6a3d 001d 033e eade 323e 46b3 febd
-0.16471502 0.32770473 0.09145304 0.0030798553 0.06998985 0.08695118 -0.0050515565 0.2402315
-0.1928777 0.09236276 0.1469131 -0.0695409 -0.026399273 -0.030873103 -0.1474145 -0.048424587
-0.21762413 0.13340268 -0.18930374 -0.13349299 0.20590334 0.14762624 -0.17623548 -0.029829333
0.15977474 0.03150603 -0.16576327 -0.10663646 -0.020171832 -0.25854 -0.24329343 0.00060946966
0.0970699 0.26880407 0.13418296 -0.078311875 0.22317907 -0.05513954 0.18309595 0.08004294
-0.24178974 0.103388794 0.0016394329 0.046478312 0.0651052 0.103826135 0.13796976 0.058673386
-0.30707985 -0.036498327 0.18795547 0.1645534 -0.23794785 0.11992514 -0.02068817 -0.19637175
-0.009738748 -0.01762138 0.06643066 -0.13040422 -0.07771843 0.15313023 -0.2282426 0.0004012405
-0.102639064 0.06925062 0.12621151 -0.13560593 0.057085346 0.23984577 -0.12892003 0.06780932
-0.13504668 -0.14011449 -0.057916272 -0.0070958296 0.054707065 0.12525661 -0.031443607 -0.18435398
0.07498637 -0.12408431 0.009504872 0.036070567 -0.09702655 -0.28454557 -0.045591068 -0.060596753
0.20177144 -0.13886385 0.055871367 -0.2124381 0.03428087 0.012675152 0.13824783 0.12938648
0.18542361 0.13023746 0.2966384 0.32478732 0.0065082144 0.032077637 -0.023767 0.07369297
-0.1352446 -0.05330138 0.1022297 -0.15198337 0.04003976 -0.096012466 0.010851296 -0.09083584
-0.11783834 -0.15239601 0.0642089 -0.07129601 0.1285386 -0.028913446 -0.008670657 0.067211196
0.17938405 -0.17730422 -0.06020269 0.039799474 -0.08235571 -0.03638037 0.160272 -0.024226066
-0.08058892 -0.2724378 -0.016622769 0.0076607787 -0.20404553 -0.05514475 -0.03393124 0.10897193
0.037198294 0.103374526 -0.086424634 -0.14556803 -0.1579073 -0.13368656 0.031885456 0.07418694
0.07785955 0.1031456 0.18922696 0.08772348 0.19214806 0.037941698 0.051364858 -0.21208683
0.1324641 0.10599547 -0.047358584 -0.15071155 0.13983077 -0.035946958 0.15457095 0.02994444
0.055379253 0.21651171 0.24844524 0.071735285 0.19364794 0.13550855 0.07200615 -0.142022
-0.029175501 0.12855205 0.03103129 0.010801869 0.27999336 0.12270655 0.09453235 0.0928686
0.18890639 0.011025388 -0.15462962 0.009396158 -0.1389038 -0.04381414 0.023739476 0.2204616
-0.28821632 0.2670275 -0.17559925 0.019975878 0.28916913 0.28138176 -0.046411976 -0.08966089
-0.04060286 -0.0129960375 -0.17350294 -0.041581932 0.07920821 0.022583002 -0.03762131 0.035004843
-0.21286832 0.11330334 0.017703088 0.08738875 0.23354824 -0.20927224 0.0064135008 -0.45641145
-0.25494882 -0.16269164 -0.04318586 -0.041239996 0.0022892081 -0.16159047 0.119301245 0.115011044
0.15195933 -0.06814428 -0.24472554 0.035286423 0.037495684 -0.062121052 0.07787266 -0.12682834
0.13842809 0.19896114 -0.42043576 -0.018141223 0.036769252 -0.007129613 -0.2614336 -0.11592726
0.12508105 0.0031799707 0.1762697 -0.23322912 0.10041054 0.12609936 0.0312194 0.0032305743
-0.058818586 -0.14238448 -0.08383752 -0.026653085 -0.10260982 0.008058323 -0.1294155 0.16767071
-0.043737102 -0.0088917315 -0.09384897 -0.08882518 0.057281587 0.12804031 0.17467847 -0.124365374
